PhonePosition/Assets/ml-onnx/model_25_samples.onnx (onnx, 107917 bytes, 8 tensors)

dense_4/kernel:0 f4 [64, 7]
0	0xbdb92140	-0.09039545
1	0x3e8449c4	0.2583753
2	0x3dc527e7	0.096267514
3	0xbe97e1db	-0.29664502
4	0xbdc51143	-0.09622433
5	0xbe9d861f	-0.3076639
6	0xbf455b47	-0.77092403
7	0xbf89a29c	-1.075275
8	0x3ba0fb5e	0.004912778
9	0xbeb554cf	-0.35416266
10	0x3ded1de9	0.115779705
11	0x3dab17fb	0.08354183
12	0x3c32f55b	0.010922755
13	0xbbfdf797	-0.0077504623
14	0xbb2561d6	-0.0025235317
15	0xbea54660	-0.32280254
16	0xbe4d3201	-0.20038606
17	0x3e795f2e	0.24352714
18	0x3e0982d9	0.1342882
19	0x3d980fb4	0.0742487
20	0x3cc48abc	0.023991935
21	0xbdb437c3	-0.08799698
22	0xbdb7a099	-0.089661784
23	0x3e0bfed7	0.13671432
24	0xbe9f7443	-0.31143388
25	0x3e31756d	0.1732995
26	0x3e32e799	0.1747116
27	0xbe591c40	-0.21202183
28	0x3c209e7b	0.00980341
29	0x3e5f9b06	0.2183648
30	0x3cefb936	0.02926312
31	0x3d1b3d13	0.03790004
32	0xbe9951b7	-0.29945156
33	0xbe8fc02d	-0.28076306
34	0x3d4410d7	0.047867622
35	0xbe80c2f5	-0.2514874
36	0x3e378623	0.17922263
37	0x3de2edc5	0.11080507
38	0x3da9357c	0.082621545
39	0xbf100970	-0.562644
40	0xbe22f295	-0.1591285
41	0xbba50a7d	-0.0050366507
42	0xbe0ae7e3	-0.1356502
43	0x3e01e48f	0.12684844
44	0xbcb967fa	-0.022632588
45	0xbc3208cd	-0.010866356
46	0x3cf50096	0.029907506
47	0x3e2bfda3	0.16795973
48	0xbdbcacd5	-0.092126526
49	0xbe61e912	-0.22061566
50	0x3d9fb0f0	0.0779742
51	0x3d71bbf5	0.05901714
52	0xbe75e2fb	-0.24012367
53	0x3d0295b4	0.03188105
54	0x3e0a4a40	0.13504887
55	0xbee1bae4	-0.440879
56	0xbdffb929	-0.12486488
57	0xbe39bb09	-0.18137754
58	0xbeab034b	-0.3340095
59	0xb9d7b690	-0.00041144015
60	0x3dd97207	0.10617452
61	0x3dd882f0	0.10571849
62	0x3e0dd70d	0.13851567
63	0xbdb5751f	-0.0886023
64	0x3e980395	0.29690233
65	0x3c9d3cce	0.019194033
66	0xbed49235	-0.41517797
67	0xbe54c277	-0.20777307
68	0x3e3eb66e	0.18624279
69	0x3e232703	0.1593285
70	0xbe012133	-0.12610321
71	0x3e6748ba	0.22586337
72	0xbded39b5	-0.11583272
73	0x3df038f0	0.1172961
74	0xbea458f4	-0.32099116
75	0xbd245cfe	-0.040127747
76	0xbe91f90d	-0.28510323
77	0x3c031a49	0.008001872
78	0x3e521a83	0.20517926
79	0xbee34520	-0.44388676
80	0xbdd28200	-0.10278702
81	0x3d4e6acf	0.05039483
82	0x3e72b3a1	0.23701335
83	0xbe362356	-0.17786917
84	0xbd132d80	-0.035932064
85	0x3c2f6ad0	0.010706618
86	0x3f1b4dc2	0.60665524
87	0xbef79277	-0.4835393
88	0xbe90d2c3	-0.28285798
89	0x3e76a4e1	0.24086334
90	0x3d9cb7f3	0.07652273
91	0xbf02e1cf	-0.51125807
92	0x3bd6f177	0.0065595466
93	0xbee10a07	-0.43952963
94	0x3deaad72	0.11458863
95	0x3e51b0c3	0.20477585
96	0xbd3e69f4	-0.046487764
97	0xbdd71bd7	-0.10503357
98	0xbaf7f3ba	-0.0018917241
99	0x3e92852f	0.28617236
100	0x3e1d1c25	0.15342768
101	0x3e01fafa	0.12693396
102	0xbf104c3f	-0.5636634
103	0xbedcdf09	-0.43138912
104	0xbeaf7c0f	-0.34274337
105	0xbdd11b97	-0.102103405
106	0xbe6a6beb	-0.2289273
107	0xbdab07cb	-0.08351096
108	0xbe0db9b1	-0.13840367
109	0x3e81a138	0.25318313
110	0x3e957b2e	0.2919554
111	0xbdc679be	-0.09691189
112	0x3bcb0880	0.0061960816
113	0xbe5ef833	-0.21774368
114	0xbe547c0b	-0.20750444
115	0xbe0b1383	-0.13581662
116	0x3dfff8a1	0.12498594
117	0x3ea523dd	0.32253924
118	0x3e86013a	0.2617281
119	0xbecbb4ab	-0.39786276
120	0x3dff4e12	0.124660626
121	0xbc7f1174	-0.015568126
122	0x3e84fd3f	0.2597446
123	0xbeb0e1d7	-0.34547302
124	0xbe932a47	-0.28743193
125	0xbeb2d62f	-0.34929034
126	0xbe34a360	-0.17640448
127	0xbe38c748	-0.1804477
128	0x3c93bf11	0.018035443
129	0xbe5d20ae	-0.21594498
130	0xbe78b4a0	-0.24287653
131	0x3ef05eb9	0.46947268
132	0x3e816b5b	0.25277218
133	0xbe7cbfbd	-0.24682517
134	0x3cb35b33	0.021894073
135	0xbd568a12	-0.052377768
136	0x3c52a80f	0.012857451
137	0x3da2e04e	0.07952939
138	0x3e0557a2	0.1302171
139	0xbef8769c	-0.48527992
140	0xbe7586e2	-0.23977235
141	0xbe735aea	-0.2376515
142	0xbe813a9a	-0.25240022
143	0x3e3cdd70	0.18443847
144	0x3d4598f4	0.04824157
145	0xbd61fd42	-0.055173166
146	0x3d270d15	0.04078396
147	0xbdb6ff68	-0.089354336
148	0xbe71354c	-0.23555487
149	0x3c968899	0.018375682
150	0x3b27c560	0.0025599822
151	0x3e54c827	0.20779477
152	0xbe49207a	-0.19641295
153	0x3d844fc4	0.064605266
154	0xbe136594	-0.14394218
155	0xbc80d020	-0.015724242
156	0x3d6004be	0.054692023
157	0x3d444c56	0.047924362
158	0x3d93956f	0.072062366
159	0x3e113847	0.14181624
160	0xbf28ed2c	-0.65986896
161	0xbf13cd80	-0.57735443
162	0xbec139a5	-0.37739292
163	0x3ed6252c	0.41825235
164	0xbe2fcb38	-0.17167366
165	0x3ec737ca	0.3890975
166	0xbe0973ba	-0.13423052
167	0xbcd79a46	-0.02631868
168	0xbdf08209	-0.11743552
169	0xbe990ed2	-0.2989412
170	0xbdf28d1f	-0.11843323
171	0xbe5d2473	-0.21595936
172	0x3e6aa60b	0.22914903
173	0x3eb0533d	0.34438506
174	0x3c79d744	0.015249077
175	0xbe2cd825	-0.16879328
176	0xbe740918	-0.23831594
177	0x3d43953a	0.047749735
178	0xbe8bc994	-0.2730223
179	0x3e41e934	0.18936616
180	0xbdef1e37	-0.11675685
181	0x3d8a886e	0.06764303
182	0xbda2853e	-0.0793557
183	0xbe0a3b90	-0.13499284
184	0x3d934505	0.07190899
185	0xbe5132e6	-0.20429572
186	0x3e3a3e93	0.18187933
187	0xbd80e813	-0.06294265
188	0x3e16e2d8	0.14734972
189	0xbf490107	-0.7851719
190	0xbd4086d9	-0.0470036
191	0xbc3099fc	-0.0107789
192	0x3d11b102	0.0355692
193	0x3d71d03a	0.05903647
194	0x3d451a47	0.048120763
195	0xbf363822	-0.711794
196	0xbd021377	-0.031756844
197	0xbdf58e0b	-0.11989983
198	0x3e3ef6f0	0.18648887
199	0xbdf477f0	-0.11936939
200	0x3df63d04	0.120233566
201	0x3c2482f1	0.0100409845
202	0x3e635eb4	0.22204095
203	0xbd16792c	-0.036736652
204	0x3eb313af	0.34975955
205	0xbd24b01b	-0.04020701
206	0x3dc63469	0.09677965
207	0xbf231ed0	-0.6371889
208	0xbe5fc417	-0.21852146
209	0xbf073e7c	-0.5282972
210	0xbe055a0a	-0.13022628
211	0x3d0ee2f0	0.034884393
212	0xbd250bd4	-0.040294483
213	0xbda99c9f	-0.08281826
214	0x3bae1785	0.0053128623
215	0x3e871699	0.26384428
216	0xbe78fb0d	-0.24314518
217	0xbc515f39	-0.0127790505
218	0x3e4e2ee7	0.2013508
219	0xbdf92058	-0.12164372
220	0x3d74a194	0.059724405
221	0xbe702d3f	-0.2345476
222	0xbe75e6da	-0.24013844
223	0xbdf16604	-0.11787036
224	0xbcedac72	-0.029012892
225	0x3e70825c	0.23487228
226	0xbc360092	-0.011108534
227	0x3e0e4b0d	0.13895817
228	0xbf066831	-0.52502733
229	0xbe6a3144	-0.22870356
230	0xbef07e5f	-0.46971413
231	0xbde9be39	-0.11413235
232	0xbe415a4a	-0.18882099
233	0x3e8bc452	0.27298218
234	0xbe77b0bf	-0.24188517
235	0x3dac68d2	0.084184304
236	0xbdef7e4f	-0.11694013
237	0x3dad1e1b	0.08453008
238	0xbfdfde62	-1.7489741
239	0x3ec0588f	0.37567565
240	0x3de729a4	0.11287239
241	0x3e079de2	0.13243821
242	0xbf1da633	-0.61581725
243	0xbea5decc	-0.32396543
244	0xbf128b4f	-0.5724382
245	0xbe949eb8	-0.29027343
246	0xbdca9722	-0.098921075
247	0xbd8f3b91	-0.06993783
248	0xbdbbe014	-0.09173599
249	0x3d967261	0.07346035
250	0x3e077919	0.13229789
251	0xbee8390b	-0.4535602
252	0xbe496170	-0.19666076
253	0x3e6f937e	0.23396108
254	0xbe9415ea	-0.2892297
255	0xbd9c8670	-0.076428294

dense_4/bias:0 f4 [7]
0	0xbd36962a	-0.0445768
1	0x3d638ce2	0.05555428
2	0xbcfffb5e	-0.03124779
3	0x3c26ff44	0.010192696
4	0x3c93513f	0.017983077
5	0x3d9f0cca	0.07766111
6	0xbf147869	-0.5799623

dense_3/kernel:0 f4 [128, 64]
0	0x3e67acd2	0.2262452
1	0x3c962944	0.018330224
2	0xbda42aa5	-0.08015946
3	0x3be6fe82	0.0070493827
4	0x3d8c0aed	0.068380214
5	0xbd3b0261	-0.045656566
6	0x3e17e653	0.14833955
7	0xbe219f58	-0.15783441
8	0x3ec53d55	0.38523355
9	0x3e74509a	0.23858872
10	0xbddd86aa	-0.10816701
11	0x3d8eca66	0.06972198
12	0x3db21310	0.08695042
13	0xbebb3a33	-0.3656784
14	0xbe04fb99	-0.12986602
15	0xbe9fad30	-0.3118682
16	0x3ea777f5	0.32708707
17	0xbefa272e	-0.48858017
18	0x3ee4221a	0.44557267
19	0xbd5dc767	-0.054145243
20	0x3d4a9f85	0.049468536
21	0xbe4790c9	-0.19488825
22	0xbe85596b	-0.26044783
23	0xbee0722f	-0.43837115
24	0xbe4922e2	-0.19642213
25	0x3e5ce4e9	0.21571697
26	0x3e935d12	0.28781945
27	0xbe8707c8	-0.26373124
28	0x3eb0452a	0.34427768
29	0xbe76f3f2	-0.24116495
30	0x3e3b67c8	0.18301308
31	0x3e232d62	0.15935281
32	0xbed94cac	-0.42441308
33	0x3d5b5f53	0.053557705
34	0xbd33f520	-0.04393494
35	0xbd731934	-0.059350207
36	0xbe24a7db	-0.16079657
37	0x3e3390a5	0.17535646
38	0x3d9fac8b	0.07796582
39	0x3e062ba5	0.13102587
40	0xbeb22997	-0.34797356
41	0xbe54ed8d	-0.20793743
42	0x3e0dc614	0.13845092
43	0xbce7a020	-0.028274596
44	0x3d41b107	0.047287967
45	0xbe316419	-0.1732334
46	0x3ea26c20	0.31723118
47	0x3eb53ead	0.3539938
48	0x3e525fa6	0.205443
49	0x3d51a2d7	0.051180687
50	0xbe94c8c6	-0.29059428
51	0x3e40459a	0.18776551
52	0xbda84f3a	-0.08218236
53	0xbcf73c44	-0.030180104
54	0xbe0630cb	-0.1310455
55	0x3d4f0b53	0.05054791
56	0x3ecbda4b	0.39814982
57	0xbe20e0e8	-0.15710795
58	0xbed273cd	-0.41103974
59	0xbdd6f597	-0.10496061
60	0x3e192be4	0.14958149
61	0xbef2585c	-0.47333038
62	0xbedeb52c	-0.43497598
63	0xbe380e06	-0.179741
64	0x3dc3cec5	0.095609225
65	0x3caac544	0.020846017
66	0xbe246652	-0.16054657
67	0x3d9868fc	0.07441899
68	0x3e6773ed	0.22602816
69	0x3e15a6d4	0.14614421
70	0x3ec6614d	0.3874611
71	0x3e14eeda	0.1454424
72	0xbe67368c	-0.22579402
73	0xbe6a09ee	-0.2285535
74	0x3e8f1838	0.27948165
75	0xbea582a8	-0.32326245
76	0xbe0ba434	-0.13636857
77	0x3dcae7f3	0.09907522
78	0x3ee64f75	0.44982496
79	0xbef31b72	-0.47481877
80	0x3ddc6e23	0.107631944
81	0x3e855441	0.26040843
82	0x3e8449c7	0.25837538
83	0x3e2fe7ac	0.1717822
84	0xbdb304d8	-0.08741158
85	0xbd08562b	-0.0332853
86	0x3e331e17	0.17491947
87	0x3e717caf	0.2358272
88	0xbeeeca4e	-0.4663872
89	0xbdc85b9b	-0.09783097
90	0x3dd22d5e	0.10262559
91	0x3e80b122	0.25135142
92	0xbdd824d1	-0.10553897
93	0x3e9ab470	0.30215788
94	0xbd7baad3	-0.061442208
95	0xbd89f786	-0.067366645
96	0x3e6e802a	0.23291078
97	0xbe8e64b7	-0.27811214
98	0x3e4adb01	0.19810106
99	0x3e4c3051	0.19940306
100	0x3e27248b	0.16322534
101	0xbe723cd2	-0.23656014
102	0x3ca6a564	0.020342536
103	0xbcd857e4	-0.026409097
104	0xbe0f7469	-0.1400925
105	0xbe632101	-0.22180559
106	0x3e1807da	0.14846745
107	0x3e824756	0.2544505
108	0xbed1f326	-0.4100582
109	0xbdc8f9c8	-0.09813267
110	0xbeac4bba	-0.33651525
111	0xbd8c0941	-0.068377025
112	0xbe062a60	-0.13102102
113	0xbf226005	-0.63427764
114	0xbda76a7e	-0.08174609
115	0x3d23b1d7	0.039964523
116	0x3e9a70f7	0.3016431
117	0x3da3c694	0.0799686
118	0x3df1af79	0.11801047
119	0xbedd2133	-0.43189391
120	0x3ddea45b	0.10871192
121	0x3d6ba5be	0.05753111
122	0x3db9bfb2	0.09069766
123	0x3e92e4fc	0.28690326
124	0xbea28048	-0.31738496
125	0x3e2d8173	0.16943912
126	0xbc9fe4d6	-0.019518297
127	0xbe13436c	-0.14381188
128	0xbe2bef55	-0.16790517
129	0xbec5e8ae	-0.38654083
130	0x3b958755	0.004563252
131	0x3de6d50b	0.112711035
132	0xbeb5ac30	-0.3548293
133	0xbe6f384d	-0.23361321
134	0xbd530fe6	-0.051528834
135	0x3dacdf78	0.08441061
136	0xbd622003	-0.05520631
137	0xbe2c2ce8	-0.16814005
138	0xbd1c45ae	-0.03815239
139	0xbe60da2a	-0.21958223
140	0x3e28dbb3	0.16490059
141	0xbec58908	-0.3858111
142	0xbe70f33a	-0.23530284
143	0x3e5df305	0.21674736
144	0x3e5bf8b3	0.2148159
145	0x3e3a7b99	0.18211211
146	0x3da5f191	0.08102716
147	0xbd40922e	-0.047014408
148	0xbde1d566	-0.11027031
149	0x3e66e3eb	0.22547881
150	0x3f1147e0	0.567503
151	0xbd3557b2	-0.044273086
152	0x3e2994c7	0.1656066
153	0x3bf32873	0.0074205934
154	0xbde02c9c	-0.109460086
155	0x3eb3ab0f	0.35091445
156	0x3e4b4fa4	0.19854599
157	0xbe2eb5bb	-0.17061512
158	0x3bf54554	0.007485071
159	0xbcd2ed93	-0.02574805
160	0xbde1ce76	-0.110257074
161	0x3dad0460	0.084481
162	0xbc6fec01	-0.01464367
163	0x3dcae3f4	0.0990676
164	0xbea483b7	-0.3213174
165	0xbea4f5ed	-0.32218876
166	0xbdaeccd7	-0.08535164
167	0xbcc56436	-0.024095636
168	0x3e2282ba	0.1587018
169	0xbe09f660	-0.13472891
170	0x3df0f766	0.117659375
171	0x3d2e97f8	0.042625397
172	0xbe79630b	-0.24354188
173	0xbdad4cac	-0.084618896
174	0xbe534fd6	-0.20635924
175	0xbdcab8af	-0.09898507
176	0x3dae6b07	0.085165076
177	0xbf0037bb	-0.5008504
178	0xbd74a170	-0.05972427
179	0xbdcdea80	-0.10054493
180	0xbe8c33de	-0.27383322
181	0x3d664782	0.05622054
182	0xbe909c29	-0.2824414
183	0xbe62c0b5	-0.22143824
184	0xbe690989	-0.22757544
185	0x3ecae9f7	0.39631626
186	0xbef2dc91	-0.47433904
187	0x3e8e1018	0.27746654
188	0x3d0472ae	0.03233593
189	0x3e9546e0	0.29155636
190	0xbe16ed17	-0.1473888
191	0xbe255e7f	-0.16149329
192	0xbe1e9a16	-0.15488467
193	0xbee1c851	-0.44098142
194	0xbe766b1b	-0.24064295
195	0x3f0526f1	0.52012545
196	0x3d393f0d	0.045226146
197	0x3c31e5fc	0.010858055
198	0xbe19e15b	-0.15027373
199	0x3e68d551	0.22737624
200	0x3c37f8d9	0.0112287635
201	0xbdb4d14a	-0.08828981
202	0xbe4f5b81	-0.2024975
203	0xbe826e78	-0.25474906
204	0xbe2fd613	-0.17171507
205	0xbf1450bc	-0.5793569
206	0x3d8ced56	0.06881206
207	0x3d01af34	0.031661227
208	0x3ea0517d	0.3131217
209	0xbedcf02d	-0.4315199
210	0x3ec112aa	0.37709552
211	0xbddf650b	-0.10907944
212	0xbe3950f9	-0.18097295
213	0x3df84cc8	0.1212402
214	0xbd871e57	-0.06597584
215	0x3eacc627	0.33744928
216	0x3dfb0ca9	0.12258274
217	0x3e623e95	0.22094186
218	0x3f05a029	0.5219751
219	0xbdd65988	-0.104662955
220	0x3ef11e66	0.47093505
221	0xbdb618f1	-0.08891476
222	0x3e6f974d	0.2339756
223	0xbefb1225	-0.4903728
224	0xbef8c46b	-0.48587355
225	0x3d9b7f33	0.07592621
226	0xbeab52f3	-0.33461723
227	0x3d90c7db	0.070693694
228	0xbe7034b6	-0.23457608
229	0x3e07ecea	0.1327397
230	0x3db10d91	0.08645166
231	0x3dede6ed	0.11616311
232	0xbca7c607	-0.020480169
233	0xbe2190e6	-0.1577793
234	0x3eaf8223	0.34278974
235	0x3e8bb2fe	0.27284998
236	0x3e8eb611	0.2787328
237	0xbe441ac7	-0.1915084
238	0x3cf6b901	0.030117514
239	0x3dfca6b6	0.12336485
240	0x3e6b8ba8	0.23002493
241	0xbd909b58	-0.070608795
242	0xbe5300e3	-0.20605807
243	0x3ec517ff	0.3849487
244	0xbe2b189f	-0.16708611
245	0x3ed8d183	0.42347345
246	0x3d9bd4e9	0.07608969
247	0x3e5ca1e1	0.21546127
248	0x3e47f5d4	0.1952737
249	0x3e1b275d	0.15151735
250	0xbf031b86	-0.5121387
251	0x3e96b558	0.2943523
252	0x3e43045b	0.1904463
253	0xbccd7719	-0.025081204
254	0x3d8853ba	0.066565946
255	0xbc024b93	-0.007952589

dense_3/bias:0 f4 [64]
0	0x3d163c77	0.036678758
1	0x3e9ab654	0.3021723
2	0xbdc9fc08	-0.09862524
3	0x3e2fb9e5	0.17160757
4	0x3dce9055	0.10086123
5	0x3d9f4f1e	0.07778762
6	0x3df1ecd7	0.11812752
7	0x3e513dd9	0.2043375
8	0x3dcffd4f	0.10155737
9	0xbe5109c2	-0.20413879
10	0x3df407be	0.11915539
11	0x3dd84077	0.10559171
12	0xbeb26660	-0.3484373
13	0x3e94fbe6	0.29098433
14	0x3e39322c	0.18085545
15	0x3daa3e0f	0.08312618
16	0xbf0ae422	-0.54254353
17	0x3e5cb01c	0.21551555
18	0xbea0c265	-0.3139831
19	0x3ebb2b09	0.3655627
20	0x3dca75f3	0.09885778
21	0xbb15dd82	-0.0022867625
22	0x3ebf702f	0.37390277
23	0x3b714654	0.00368156
24	0x3e3c6609	0.18398298
25	0x3d25164e	0.040304475
26	0xbe41a9b2	-0.1891239
27	0x3ef8dacf	0.48604438
28	0xbde4d09f	-0.11172604
29	0x3e0a5058	0.13507211
30	0x3dfb171a	0.12260266
31	0x3df189bb	0.11793848
32	0x3e3e2afc	0.18571085
33	0xbd88af50	-0.06674063
34	0x3e6a4083	0.22876172
35	0x3e971d21	0.2951441
36	0x3ea9e4fb	0.3318251
37	0xbd3fba56	-0.046808563
38	0x3e0a2435	0.13490374
39	0x3de7354b	0.11289462
40	0x3d35401e	0.0442506
41	0x3ec41c9c	0.38303077
42	0xbe001ac2	-0.12510207
43	0xbeb6d082	-0.35705954
44	0x3e2e424e	0.1701748
45	0xbcfccf12	-0.030860458
46	0xbe0444b9	-0.1291684
47	0xbea337ba	-0.31878453
48	0xbe5aeff5	-0.21380599
49	0x3e67c73b	0.22634594
50	0x3e78bfd4	0.24291927
51	0xbd83b476	-0.064309046
52	0x3dedea51	0.11616958
53	0x3e445827	0.19174252
54	0x3e7eff1f	0.24902008
55	0xbcc82e11	-0.024436029
56	0x3c88d291	0.016701968
57	0x3d692abd	0.056925524
58	0x3e6f83fc	0.23390192
59	0xbdb4b2e5	-0.08823184
60	0x3ca8aee0	0.0205912
61	0x3e2ad3b5	0.16682322
62	0xba37de68	-0.0007014037
63	0xbd992711	-0.074781545

dense_2/kernel:0 f4 [64, 128]
0	0x3dafdeef	0.08587443
1	0x3ec9a444	0.39383137
2	0xbc0e2020	-0.008674651
3	0xbf06032e	-0.523486
4	0x3e94efdd	0.2908925
5	0xbc51166f	-0.012761696
6	0xbd32b4f2	-0.043629594
7	0x3d3ee374	0.046603635
8	0xbe6b2b01	-0.22965623
9	0xbe8c8f54	-0.274531
10	0x3e61110c	0.21979159
11	0x3cb6cfed	0.022315944
12	0xbd6405e0	-0.055669665
13	0xbdf529b8	-0.11970848
14	0x3ce5040e	0.027956035
15	0x3e6e1350	0.23249555
16	0xbde5a8c6	-0.112138316
17	0xbbfac2ae	-0.007652602
18	0xbf154e54	-0.58322644
19	0xbe1d557c	-0.15364641
20	0xbeee7ddf	-0.46580407
21	0xbddc0c4d	-0.10744534
22	0x3dd09ffd	0.10186765
23	0xbdfdbc37	-0.12389415
24	0xbe81f181	-0.25379565
25	0xbcf597cb	-0.029979607
26	0x3e1d0132	0.15332487
27	0x3e5bfefc	0.21483988
28	0xbcaf180b	-0.02137377
29	0x3e2a95f8	0.16658771
30	0xbed4ca01	-0.41560367
31	0xbdab704f	-0.083710305
32	0xbe4e42f0	-0.20142722
33	0xbc2bf103	-0.010494473
34	0x3dd48a5d	0.10377953
35	0x3e0b6e37	0.13616262
36	0x3ebafaa7	0.36519358
37	0xbdd21394	-0.102576405
38	0x3d1892f1	0.03724951
39	0x3e873b5c	0.26412475
40	0xbe836902	-0.25666052
41	0x3e1178b7	0.14206205
42	0xbe38e27f	-0.18055151
43	0xbd902b5c	-0.0703952
44	0xbb88f77d	-0.0041798935
45	0xbd2c4616	-0.042059027
46	0xbdc834b7	-0.097756796
47	0xbe77d7c8	-0.24203408
48	0xbe76f3c4	-0.24116427
49	0xbe556a76	-0.20841393
50	0xbd9f0abc	-0.07765719
51	0x3e442c0e	0.1915743
52	0xbe37ae2d	-0.17937537
53	0xbe10702f	-0.14105295
54	0xbeb2f31f	-0.34951112
55	0x3e0ff058	0.14056528
56	0xbe1a787f	-0.15085028
57	0xbf09ab1d	-0.53776723
58	0xbdf10ff5	-0.11770622
59	0x3d1cc339	0.038272116
60	0x3e7539ae	0.23947784
61	0x3e0d4710	0.1379664
62	0x3da8df6d	0.0824574
63	0xbe621726	-0.22079143
64	0xbda4b0f6	-0.08041565
65	0xbcdd472d	-0.027011478
66	0x3e6ca1df	0.23108624
67	0x3f065ad5	0.5248235
68	0x3e80d4d1	0.25162366
69	0xbf1167fd	-0.567993
70	0xbddf0741	-0.108900554
71	0x3e2d14bc	0.16902441
72	0xbece9344	-0.4034673
73	0x3dad89e8	0.08473569
74	0xbdd7d30c	-0.10538301
75	0xbd8ced71	-0.06881226
76	0x3d84fd68	0.06493646
77	0x3dec4d5d	0.115381934
78	0x3dec8875	0.115494646
79	0x3da1e500	0.079050064
80	0x3dcfd1e0	0.10147452
81	0xbd090ea9	-0.033461247
82	0xbeae8380	-0.34084702
83	0xbda0f627	-0.0785945
84	0x3e22dfba	0.15905657
85	0x3d13c478	0.03607604
86	0x3c982061	0.018570127
87	0xbe8beebb	-0.27330574
88	0xbdca212e	-0.0986961
89	0x3da12142	0.078676715
90	0xbe58fce6	-0.21190223
91	0x3e71375e	0.23556277
92	0xbe8b95aa	-0.27262622
93	0x3d3e30c8	0.04643324
94	0x3d4b8765	0.04968967
95	0xbe9844fa	-0.29740125
96	0xbe601fc6	-0.2188712
97	0xbe203600	-0.156456
98	0x3e9c8943	0.30573472
99	0xbf222da1	-0.63350874
100	0xbf0d5f50	-0.5522356
101	0x3e16b28f	0.14716552
102	0xbe9a615c	-0.30152404
103	0xbd79a517	-0.060948458
104	0xbdcf3732	-0.101179495
105	0x3d24cdc9	0.040235315
106	0xbd5d78cb	-0.054070275
107	0x3dee2767	0.11628609
108	0x3e90d2ce	0.2828583
109	0x3eab44a9	0.3345082
110	0xbee45ae0	-0.44600582
111	0x3dc659fb	0.09685131
112	0x3d565152	0.052323647
113	0xbdade311	-0.08490575
114	0x3cb5f06b	0.022209367
115	0xbe377997	-0.17917477
116	0x3d288ad5	0.041148026
117	0x3db3a097	0.087708645
118	0xbead8efe	-0.33898157
119	0x3d52fcaa	0.05151049
120	0x3dc8d0db	0.09805461
121	0x3edccf5e	0.4312696
122	0x3e88318a	0.26600295
123	0xbdf4d3a7	-0.11954432
124	0x3df503a8	0.11963588
125	0xbe66df90	-0.2254622
126	0xbdc5889a	-0.09645195
127	0xbe465e76	-0.19371971
128	0xbe22dd4e	-0.15904734
129	0xbc73462b	-0.014848272
130	0xbde3d91c	-0.11125395
131	0xbc8b1ad0	-0.016980559
132	0x3ce894d8	0.028391287
133	0xbe388d0f	-0.1802256
134	0x3dadf9dc	0.084949225
135	0x3d36057e	0.04443883
136	0x3e5f3a2d	0.21799536
137	0xbe054e2d	-0.13018103
138	0xbd7f0791	-0.062263075
139	0xbe0a736d	-0.13520594
140	0x3d7f141f	0.06227505
141	0x3daa375d	0.08311341
142	0xbd144f37	-0.036208358
143	0xbc680e70	-0.014163598
144	0x3c9a9dd8	0.018874094
145	0xbe885564	-0.26627648
146	0xbb5bb310	-0.0033523478
147	0xbc67a09d	-0.014137414
148	0x3e20647b	0.1566333
149	0xbd53eadc	-0.05173765
150	0x3e07578a	0.13216987
151	0xbe83a4cc	-0.25711668
152	0x3dc73824	0.09727505
153	0xbdd402ce	-0.103520975
154	0xbdaa7c6c	-0.08324513
155	0xbccb2555	-0.024798075
156	0x3c839616	0.016062777
157	0xbda0c91a	-0.07850857
158	0xbe11d1e7	-0.14240228
159	0xbd01e97d	-0.031716812
160	0xbd8a471a	-0.06751843
161	0x3d867d1b	0.06566831
162	0x3e161ac9	0.14658655
163	0xbcb15239	-0.021645652
164	0x3ce69750	0.028148323
165	0x3e087950	0.13327527
166	0xbe31f64f	-0.17379116
167	0xbdd795d0	-0.10526621
168	0xbd939750	-0.07206595
169	0xbddbdb4b	-0.10735186
170	0x3daa3352	0.0831057
171	0x3d44dbc5	0.04806115
172	0xbdf1c4d5	-0.11805121
173	0xbba2647d	-0.004955827
174	0xbcb342e7	-0.021882487
175	0x3d8b0656	0.06788318
176	0xbd0cae5a	-0.034345962
177	0xbcd72f97	-0.02626781
178	0x3caedd24	0.021345682
179	0xbd091531	-0.033467475
180	0x3d768260	0.06018293
181	0x3dba8059	0.091065116
182	0xbe0abe5d	-0.1354918
183	0x3b84a699	0.0040481803
184	0x3cad2ec0	0.021140456
185	0x3ccab417	0.024744077
186	0x3d87ff1f	0.06640457
187	0x3dc5a869	0.09651262
188	0x3db6c72a	0.08924706
189	0x3be26d22	0.0069099823
190	0xbce26187	-0.027634395
191	0x3e3180c0	0.1733427
192	0xbd457312	-0.048205443
193	0xbdeac65d	-0.11463616
194	0x3ba8ce9f	0.0051515843
195	0xbd05c3dc	-0.03265749
196	0x3d51e846	0.051246904
197	0x3bb6712f	0.0055676918
198	0x3d3d2ae6	0.04618349
199	0xbabe6ee3	-0.0014528896
200	0x3d7fcfa7	0.062453892
201	0x3d1d8340	0.038455248
202	0x3cc9c4f8	0.024630055
203	0x3e3c38ca	0.18381038
204	0xbd05e0b9	-0.032685015
205	0x3d0add09	0.0339022
206	0x3c4a88ba	0.0123617
207	0xbcfff6e0	-0.031245649
208	0x3d80ede6	0.062953755
209	0x3df2794b	0.11839541
210	0x3d985da5	0.07439736
211	0x3dabfcb5	0.083978094
212	0x3de379ba	0.11107202
213	0x3ce1934c	0.027536057
214	0x3d3353c8	0.043781072
215	0xbd2f7ccb	-0.04284362
216	0xbd351c3e	-0.044216387
217	0xbb8c9ced	-0.004291168
218	0x3dea459b	0.114390574
219	0x3d8634cd	0.0655304
220	0x3d145dca	0.036222257
221	0xbdaaf12b	-0.083467804
222	0x3d5bd791	0.053672377
223	0x3cf2de72	0.029647086
224	0x3bafafea	0.0053615468
225	0x3d3dfd4a	0.046384133
226	0x3d937ed3	0.07201924
227	0x3d7da4f9	0.06192491
228	0x3df70549	0.12061555
229	0x3dc6b753	0.09702935
230	0x3e1287bd	0.14309593
231	0xbe14e4ec	-0.14540452
232	0xbd029bd0	-0.031886876
233	0x3cf62fbe	0.030052062
234	0x3cefe354	0.029283203
235	0x3b5c5d43	0.0033624924
236	0x3d09921a	0.0335866
237	0xbd731bfa	-0.059352852
238	0xbe2610e4	-0.16217381
239	0x3d95626f	0.07294165
240	0x3c0a8035	0.0084534185
241	0x3ce649d0	0.028111368
242	0xbed0375c	-0.40667236
243	0xbc813fea	-0.015777547
244	0xbc3feeac	-0.011714619
245	0xbdd842f5	-0.10559646
246	0xbbeb0513	-0.0071722358
247	0x3d8a8fcc	0.06765708
248	0xbc60a078	-0.013710134
249	0xbc8d38f5	-0.017239073
250	0xbc1948c2	-0.009355726
251	0x3d292da4	0.041303292
252	0x3d401743	0.046897184
253	0xbcaa8c6a	-0.020818908
254	0x3cf22b0d	0.029561544
255	0x3cb728df	0.022358356

dense_2/bias:0 f4 [128]
0	0xbeb142b4	-0.34621203
1	0x3d53afae	0.051681213
2	0xbe1e491e	-0.1545758
3	0x3d4de1d6	0.050264202
4	0xbd9f2129	-0.07769997
5	0xbe3f8c2a	-0.18705812
6	0xbd83bddf	-0.064326994
7	0xbd9f24a0	-0.077706575
8	0xbb27f145	-0.0025625986
9	0x3e5f13d6	0.2178491
10	0x3c79f955	0.015257199
11	0xbe84355c	-0.2582196
12	0x3e1de0d9	0.15417804
13	0x3e7c25e8	0.24623835
14	0x3e599423	0.21247916
15	0x3d4e612a	0.05038563
16	0x3e468884	0.19388014
17	0xbccd521b	-0.025063565
18	0x3e7a2c88	0.2443105
19	0xbcc784eb	-0.024355372
20	0x3d6366c4	0.055517927
21	0x3e9dd99b	0.30830082
22	0x3ea03580	0.31290817
23	0x3e04f8e9	0.12985577
24	0xbde1ca63	-0.1102493
25	0x3ec20fb5	0.3790261
26	0x3e1617df	0.14657544
27	0x3de05777	0.109541826
28	0x3e9f450a	0.3110736
29	0x3b18f9d6	0.0023342273
30	0x3e33fc8f	0.17576812
31	0xbd9521d2	-0.07281841
32	0xbdef4f8e	-0.11685096
33	0xbe570ed0	-0.21001744
34	0x3e5f1aae	0.21787521
35	0x3c8e810d	0.01739552
36	0xbd0aeb4e	-0.03391581
37	0x3e4a70fd	0.19769664
38	0xbe9711a5	-0.2950565
39	0xbe4327fa	-0.19058219
40	0xbdc1bd31	-0.094599135
41	0x3e49fd33	0.19725494
42	0x3ec3a8ee	0.3821482
43	0x3e8afc6c	0.27145708
44	0xbd5eacfb	-0.054364186
45	0x3e8dfc61	0.27731612
46	0xbe1d4b7b	-0.15360825
47	0x3e876a05	0.26448074
48	0xbe50aa5e	-0.2037749
49	0xbe3edeed	-0.18639727
50	0x3e4942aa	0.19654337
51	0xbe475c1d	-0.19468732
52	0x3e4bfc34	0.19920427
53	0x3e9766ce	0.2957062
54	0x3e26dc34	0.16294938
55	0x3e24699c	0.16055912
56	0x3e97e999	0.29670408
57	0x3e2fdd81	0.17174341
58	0x3e56ceac	0.20977277
59	0x3ea34313	0.3188711
60	0x3ea70997	0.32624504
61	0x3c8508e0	0.016239583
62	0xbdb174de	-0.08664869
63	0x3d977565	0.07395438
64	0x3e9c9a9e	0.30586714
65	0xbd0e4284	-0.034731403
66	0xbdaaf06d	-0.08346639
67	0x3d8da44a	0.06916101
68	0x3e2301e8	0.15918696
69	0x3e36401b	0.17797892
70	0xbd7d3b79	-0.061824296
71	0xbb9b038f	-0.004730649
72	0x3d0dca1c	0.034616575
73	0x3c499df6	0.012305727
74	0x3d64e5c2	0.055883177
75	0x3d93f420	0.072242975
76	0x3e52d2e8	0.20588267
77	0x3e3043ef	0.17213415
78	0x3e83c0b2	0.25732952
79	0xbd84e215	-0.06488434
80	0x3e472cea	0.19450727
81	0x3ded40c7	0.11584621
82	0x3d7bfd59	0.061520908
83	0xbdede7b9	-0.11616463
84	0xbd8fe7f1	-0.07026661
85	0xbd9868ca	-0.07441862
86	0xbe03d12a	-0.12872759
87	0x3e4de367	0.20106278
88	0x3e8443e8	0.25833058
89	0x3eba3731	0.36370233
90	0x3e5fbcd3	0.21849374
91	0x3c5d5586	0.01350916
92	0x3e2d40ad	0.16919203
93	0x3e49fcd7	0.19725357
94	0xbd39af8f	-0.04533344
95	0x3ebf3292	0.3734327
96	0x3eac9c3a	0.3371294
97	0x3ea0480d	0.3130497
98	0x3e7ccf8b	0.24688546
99	0x3e4fcdf9	0.20293416
100	0x3db6dcfa	0.08928867
101	0x3e880d6f	0.2657275
102	0x3dabd85e	0.08390878
103	0xbdc820e4	-0.097718984
104	0x3d81eaee	0.063436374
105	0xbd9f936c	-0.0779179
106	0xbe1cece2	-0.15324739
107	0xbe7b17b3	-0.2452076
108	0x3e95e72e	0.2927794
109	0xbd80b483	-0.0628443
110	0xbe2b59d5	-0.16733487
111	0x3e533ac2	0.20627883
112	0xbda7f27f	-0.08200549
113	0xbd0f8b41	-0.035044912
114	0xbe3fbf5a	-0.18725339
115	0x3d2c6ab0	0.042093933
116	0x3e40112f	0.18756555
117	0x3e85d68a	0.26140243
118	0x3e5ba195	0.21448357
119	0xbd97163a	-0.07377286
120	0xbe9976dd	-0.29973498
121	0xbd8d5c60	-0.06902385
122	0xbc20c92e	-0.00981359
123	0x3e07aae0	0.13248777
124	0x3d339227	0.043840554
125	0xbb92ac84	-0.004476132
126	0x3ebc289b	0.3674973
127	0x3ea35576	0.3190114

dense_1/kernel:0 f4 [150, 64]
0	0xbe615d74	-0.22008306
1	0xbc4d1111	-0.012516276
2	0xbe043706	-0.12911615
3	0xbda57c54	-0.08080354
4	0xbec39192	-0.38197
5	0xbd7465f6	-0.05966755
6	0xbe1e5086	-0.15460405
7	0x3f054eed	0.52073556
8	0x3e25c358	0.16187799
9	0xbf35823b	-0.7090184
10	0xbe5127b5	-0.20425303
11	0xbdbfdde5	-0.09368495
12	0xbccb92c7	-0.024850262
13	0xbd8e7e96	-0.06957738
14	0xbd8ffb1f	-0.070303194
15	0xbb06f51e	-0.0020592879
16	0xbe72412a	-0.2365767
17	0x3b3165a6	0.0027068644
18	0x3f343279	0.70389515
19	0x3d7b0f38	0.06129381
20	0x3d349e97	0.044096556
21	0xbe094296	-0.13404307
22	0xbe00659c	-0.12538761
23	0xbe12850b	-0.14308564
24	0xbf04d820	-0.5189228
25	0xbefe8b12	-0.49715477
26	0x3c99bb7b	0.018766155
27	0xbeba9f5e	-0.36449713
28	0xbdd3f87b	-0.10350128
29	0xbf437431	-0.7634917
30	0xbef15ba4	-0.4714023
31	0x3e8037b5	0.250425
32	0xbdbee6df	-0.09321379
33	0xbe9f8251	-0.3115411
34	0xbe07e7fe	-0.13272092
35	0xbd86c799	-0.06581039
36	0x3e8e40cf	0.2778382
37	0xbe973fcf	-0.2954087
38	0xbecf4cdf	-0.40488335
39	0xbe540310	-0.20704293
40	0x3e14b986	0.14523897
41	0xbc380a53	-0.01123293
42	0xbbbe91cd	-0.0058157207
43	0x3d5b686b	0.053566378
44	0xbe2b6b12	-0.16740063
45	0x3e425040	0.18975925
46	0x3e2a0e53	0.16607027
47	0xbe1d4bd5	-0.15360959
48	0xbc95bf39	-0.018279659
49	0xbe88ee98	-0.26744533
50	0x3d97170e	0.07377444
51	0xbea24fa8	-0.31701398
52	0xbe10116f	-0.1406915
53	0xbd8a4b09	-0.06752593
54	0x3ea64f36	0.32482308
55	0xbe7b5db6	-0.24547467
56	0xbd0c9c3a	-0.034328677
57	0xbf02466c	-0.50888705
58	0xbf0ae8ea	-0.5426165
59	0xbe11f64d	-0.14254113
60	0xbebb5f41	-0.3659611
61	0xbe364150	-0.17798352
62	0x3ce508c3	0.02795828
63	0xbd910967	-0.070818715
64	0xbe448932	-0.19192961
65	0x3d87007b	0.065918885
66	0xbeca6911	-0.39533284
67	0x3c9484dc	0.018129759
68	0x3f898e80	1.0746613
69	0x3c030a1c	0.007998016
70	0xbee475d7	-0.44621155
71	0xbf40fd79	-0.7538677
72	0x3e07af7f	0.1325054
73	0x3eb8ea97	0.36116478
74	0x3f2fd1dd	0.686796
75	0x3eb80f3c	0.35949123
76	0x3e535d96	0.20641169
77	0xbe59a726	-0.21255168
78	0xbe383906	-0.17990503
79	0x3e9a269c	0.30107582
80	0x3dd95fc9	0.10613973
81	0x3f3e9e20	0.7446003
82	0xbf1b175a	-0.60582507
83	0xbefc9321	-0.49331
84	0x3de53c18	0.111931026
85	0x3e4a4dca	0.19756237
86	0x3e3f9558	0.18709314
87	0x3e86a184	0.26295102
88	0x3f859640	1.0436478
89	0xbe0a220f	-0.13489555
90	0xbde4ea1f	-0.111774676
91	0x3ef1d5cc	0.47233427
92	0x3e5ca3eb	0.21546905
93	0xbea6e3f4	-0.3259579
94	0x3e81508c	0.25256765
95	0xbf099033	-0.53735656
96	0x3e3a7ce3	0.18211703
97	0xbdb7cd91	-0.089747556
98	0x3eb82cdd	0.35971728
99	0x3d837b26	0.06419973
100	0xbd62ac5d	-0.05534016
101	0x3cc3066b	0.023806771
102	0xbd20429a	-0.039126016
103	0x3eaed60f	0.3414769
104	0x3c035207	0.008015162
105	0x3dbf4c1a	0.09340687
106	0x3ebb598a	0.3659175
107	0x3e0e081f	0.13870285
108	0x3e215f86	0.15759096
109	0xbddf0c81	-0.10891057
110	0xbea40d2d	-0.32041302
111	0xbe3d45bf	-0.18483637
112	0x3f2b4e41	0.6691628
113	0x3e6f7d55	0.23387654
114	0x3dbf346e	0.09336172
115	0xbef0b154	-0.4701029
116	0x3f2f2b24	0.684252
117	0xbe55fe11	-0.208977
118	0xbf21b08b	-0.6316001
119	0x3dbb0797	0.09132307
120	0xbea25733	-0.31707153
121	0xbe4eb3ae	-0.2018573
122	0x3f3dff96	0.7421812
123	0x3f141709	0.5784765
124	0xbc28a2ce	-0.010292722
125	0xbe0f4c42	-0.13993934
126	0x3f2e6279	0.6811901
127	0xbd0d621d	-0.034517396
128	0x3d68f096	0.056870066
129	0x3d331c71	0.043728296
130	0xbf0385d4	-0.5137608
131	0x3e342ee4	0.17596012
132	0xbe9fc787	-0.31206915
133	0x3e9498a5	0.2902271
134	0xbe898c48	-0.2686484
135	0xbe910062	-0.28320605
136	0xbe2e96d1	-0.1704972
137	0x3f9e6beb	1.2376684
138	0xbe049eb5	-0.12951167
139	0xbe15cec7	-0.1462966
140	0xbe0da4b9	-0.13832368
141	0x3eefa949	0.46808842
142	0xbe4f3b70	-0.20237517
143	0x3e35955f	0.17732762
144	0x3e0be12d	0.13660116
145	0x3ed3fa1f	0.41401765
146	0xbe6dacc4	-0.23210436
147	0x3e5a7b5b	0.21336119
148	0xbf054bd2	-0.5206882
149	0xbe03c390	-0.1286757
150	0x3e91c52f	0.28470752
151	0x3edb3df6	0.4282071
152	0xbe8cd4f4	-0.2750622
153	0x3dd47019	0.103729434
154	0x3e48be07	0.1960374
155	0xbf37ba6e	-0.71768844
156	0xbe3eaeac	-0.1862132
157	0x3d1539e1	0.03643215
158	0xbde4c42e	-0.11170231
159	0x3ec9c48a	0.3940776
160	0x3e007eee	0.1254842
161	0x3e9cb13f	0.30603978
162	0x3f1316d2	0.57456696
163	0x3ee9de81	0.4567757
164	0xbbc02a63	-0.005864428
165	0x3c828684	0.015933283
166	0xbb9a4c60	-0.0047088116
167	0xbea58b62	-0.32332903
168	0xbe0872a6	-0.13324985
169	0x3e836f26	0.25670737
170	0xbf2a83b6	-0.66607225
171	0xbf07112c	-0.5276058
172	0xbddcc9bf	-0.107806675
173	0x3f1dbf08	0.61619616
174	0xbf154cff	-0.5832061
175	0xbf65800e	-0.8964852
176	0xbece1078	-0.4024694
177	0x3f1138d8	0.5672736
178	0xbe693213	-0.22773008
179	0x3d7cba15	0.0617009
180	0x3eb11835	0.3458878
181	0xbccc057b	-0.024904957
182	0xbdfa61f0	-0.12225711
183	0x3eded90e	0.43524975
184	0xbe9e9633	-0.30973968
185	0x3e283ef2	0.16430262
186	0xbe00428d	-0.12525387
187	0x3e11bdb8	0.14232528
188	0x3dba3538	0.09092182
189	0xbe339701	-0.17538072
190	0x3eba2275	0.36354414
191	0x3efa5038	0.48889327
192	0xbe45ac73	-0.19304065
193	0xbb6dfef4	-0.0036315294
194	0xbe0de64d	-0.13857384
195	0xbd385fe2	-0.045013316
196	0xbed5d7f9	-0.41766337
197	0xbd940baa	-0.07228787
198	0xbd1e53c4	-0.038654104
199	0x3f114f5b	0.5676171
200	0x3ddcbba9	0.10777981
201	0xbf471ca1	-0.7777806
202	0xbdafed46	-0.08590178
203	0xbd0c4c69	-0.034252558
204	0xbd03af52	-0.03214962
205	0xbdcf6964	-0.101275235
206	0xbc9528b2	-0.018207882
207	0x3db9d67a	0.09074111
208	0xbe7fc2b5	-0.24976619
209	0xbd9fcaf8	-0.07802385
210	0x3f23629e	0.6382235
211	0xbd468a83	-0.04847194
212	0x3b186c83	0.0023258037
213	0xbd9d90b5	-0.07693616
214	0xbda43c36	-0.08019297
215	0xbe35198f	-0.17685531
216	0xbf075e54	-0.5287831
217	0xbf0d966d	-0.55307657
218	0x3da5af5f	0.0809009
219	0xbe9019bb	-0.2814463
220	0xbdcc136c	-0.09964642
221	0xbf232ee4	-0.63743424
222	0xbea2cdc6	-0.31797618
223	0x3e9d14e1	0.30679992
224	0xbd9c5cf1	-0.07634915
225	0xbec8a36d	-0.39187184
226	0xbd7a282e	-0.061073475
227	0xbc34ab01	-0.011027099
228	0x3e5297af	0.20565675
229	0xbeba035e	-0.36330694
230	0xbe8e3a03	-0.27778634
231	0xbe11bec3	-0.14232926
232	0x3d7e7a8c	0.06212859
233	0x3c068c5d	0.008212176
234	0xbbd5a019	-0.0065193293
235	0xbc861abb	-0.016370168
236	0xbe302ac9	-0.17203821
237	0x3dbe9b24	0.093069345
238	0x3e648640	0.22316837
239	0xbe3f67a9	-0.18691887
240	0xbc8f7156	-0.017510097
241	0xbe638e83	-0.22222333
242	0xbc0182e0	-0.007904738
243	0xbe9802fc	-0.29689777
244	0xbdf4c804	-0.119522125
245	0xbdf53304	-0.11972621
246	0x3e5befb4	0.21478158
247	0xbeaf8caf	-0.3428702
248	0xbd60f752	-0.054923363
249	0xbee42b04	-0.44564068
250	0xbefb0768	-0.49029088
251	0xbe5380c0	-0.20654583
252	0xbeace38d	-0.33767357
253	0xbe31c0d6	-0.17358717
254	0xbccee7a7	-0.025256945
255	0xbc0d9cc2	-0.008643331

dense_1/bias:0 f4 [64]
0	0xbdb42145	-0.08795408
1	0xbf02afe8	-0.5104966
2	0xbe24e7b4	-0.16104013
3	0xbe8b81a3	-0.27247342
4	0xbe902195	-0.2815062
5	0xbeb7cd22	-0.3589869
6	0xbe224b5e	-0.15849063
7	0x3cbea74d	0.023273135
8	0xbe7b24b5	-0.24525721
9	0xbe252706	-0.16128168
10	0xbdc69aa1	-0.09697462
11	0xbc616ab9	-0.013758355
12	0xbe2cee5d	-0.16887803
13	0xbe64e74e	-0.2235386
14	0xbe2679f6	-0.16257462
15	0x3d8b4443	0.06800129
16	0x3e39d40d	0.18147297
17	0xbbb08f27	-0.005388159
18	0x3ebd0fce	0.3692612
19	0xbec00412	-0.37503105
20	0xbdfa61be	-0.12225674
21	0xbe8f3235	-0.27967992
22	0xbdff7eba	-0.12475343
23	0xbd95983d	-0.07304428
24	0xbe811b80	-0.25216293
25	0x3e36304d	0.17791863
26	0xbdc58357	-0.09644192
27	0xbe8da1dd	-0.27662554
28	0xbe3b95df	-0.1831889
29	0xbd9956e7	-0.074872784
30	0xbce3fb9e	-0.027829941
31	0xbecb3406	-0.39688128
32	0xbe991401	-0.29898074
33	0x3e2fb286	0.17157945
34	0x3c09dffa	0.008415217
35	0xbe96a2db	-0.29421124
36	0xbeeb26cf	-0.45928046
37	0x3eca721f	0.39540192
38	0x3f00ef20	0.50364876
39	0x3e5a81b3	0.21338539
40	0x3c36faea	0.011168221
41	0xbe56f8cb	-0.20993344
42	0xbe034bc9	-0.12821878
43	0xbeb83811	-0.35980275
44	0x3ead4e87	0.33848974
45	0x3e246da3	0.16057448
46	0xbed804f9	-0.42191294
47	0xbe91bcf8	-0.28464484
48	0xbe4a246c	-0.19740456
49	0xbc48500a	-0.012226114
50	0xbf0db2e0	-0.55351067
51	0xbde2d33b	-0.11075445
52	0xbbd8e851	-0.006619491
53	0xbe76d54f	-0.24104808
54	0x3eceb941	0.40375713
55	0x3db54452	0.08850922
56	0x3c6e16c3	0.014531794
57	0xbe0efa79	-0.13962735
58	0xbdb65655	-0.08903185
59	0xbb96cb83	-0.004601897
60	0xbe12af2a	-0.14324632
61	0xbdc6824f	-0.09692823
62	0x3c8509ba	0.01623999
63	0xbe9509b4	-0.29108965
