PhonePosition/Assets/ml-onnx/model_25_samples_Conv1D.onnx (onnx, 315218 bytes, 8 tensors)

dense_2/kernel:0 f4 [100, 7]
-0.059055213 -0.23248948 -0.0534617 -0.18749692 0.03893493 -0.20164807 0.10513866 -0.50592226
-0.07645267 -0.4543891 0.3107963 -0.056500535 -0.19236337 0.036052465 0.09181622 -0.009448137
0.14685418 0.011835269 0.090534 0.16903901 0.03439519 -0.28457528 -0.22736774 0.37773633
-0.009563591 0.099221274 0.11172987 -0.087749496 -0.036648918 0.17543218 -0.11988685 0.08190529
0.124174975 0.1376017 -0.056981627 0.28103215 0.14728473 -0.06949105 -0.38176838 -0.5132082
0.048961874 0.025480038 -0.13665268 0.19619395 0.08849573 0.26271895 0.18599157 0.10311684
-0.28495315 -0.5478296 0.22286724 -0.3653876 0.15532057 0.10961573 -0.05966595 -0.33031482
0.4242009 -0.30187625 0.19828764 -0.1244148 -0.06413308 -0.10694834 0.055196892 -0.0775299
0.01895059 -0.38209644 0.19911873 -0.33489877 0.09856949 -0.038973287 0.03341735 0.26759312
-0.26370645 -0.2834827 0.18224758 0.04408882 -0.18312944 -0.16011931 0.1637039 -0.16282256
-0.39206532 0.27312925 0.11631573 -0.28409424 -0.28369832 -0.25661117 0.4801648 -0.21872488
-0.27002203 0.10709633 0.014435553 0.24919409 0.115742244 0.17489077 -0.11200581 0.18127406
-0.5857176 -0.35963085 0.48077002 -0.52379143 -0.028838491 -0.041993495 -0.10477373 -0.45214075
-0.03176388 0.149362 -0.2237476 0.20196617 0.029284464 -0.0841855 0.032789785 -0.1982057
0.1388482 0.12378486 0.03342075 0.18477349 0.16050065 -0.39077544 -0.31937978 0.4136954
-0.41873997 0.2732935 0.07256435 0.06798186 -0.43473205 -0.18965666 -0.43235022 -0.4305505
0.53170484 0.106550224 0.051064983 -0.31837133 -0.14274275 0.017688071 0.14023964 0.12011781
-0.16298719 -0.4986779 0.024515234 -0.0672232 -0.065612 -0.23593885 0.08337725 0.14006333
0.07778785 -0.03397944 -0.25583896 0.049614727 -0.46362633 0.07059337 -0.27035955 0.033771496
-0.05342312 0.07811689 0.48156127 0.078452736 -0.351176 0.074813 0.093132116 -0.2653007
-0.11020213 -0.12168545 0.47079632 -0.5024716 -0.0006029148 -0.028128834 -0.23500429 0.119733125
0.10486988 0.14421934 0.18235497 -0.24822326 -0.15723185 -0.22609165 -0.04309196 0.022478592
0.06871241 0.13910742 -0.007869023 -0.08406183 0.105847694 -0.3309787 -0.16693637 -0.13182716
0.18493721 -0.15425089 -0.15280029 0.15201631 -0.22060306 0.018647738 0.014723463 0.012621878
-0.19722849 -0.056589242 0.032715265 -0.32803327 0.07073177 -0.09622152 0.10773744 0.106440775
0.23593394 -0.35940275 -0.0638481 -0.37826312 0.021913612 -0.26432693 0.14997138 0.1407154
-0.2930724 -0.49241003 -0.38380542 -0.2197761 0.43498692 0.18787366 0.17845564 0.17030604
-0.3058725 0.16637166 0.39734644 -0.40788424 -0.08821604 -0.18182752 -0.12770577 -0.02098215
0.02809768 0.20285425 -0.34740934 0.104363754 0.20483549 -0.24748313 -0.27818298 0.13279559
-0.3086758 0.039045397 0.16380903 0.22330078 -0.2703588 -0.38324267 0.039422482 0.03455551
0.0072025433 0.093016975 -0.26863065 0.13654628 -0.22906116 0.32558915 -0.32691678 -0.2105319
0.0019965165 -0.054248083 0.06390191 -0.25190866 0.1649591 0.10047367 0.14002049 -0.08169299
00000000: e1e3 71bd b911 6ebe a8fa 5abd 31ff 3fbe
00000010: 3c7a 1f3d d57c 4ebe f052 d73d 1f84 01bf
00000020: 3893 9cbd b0a5 e8be b120 9f3e 1b6d 67bd
00000030: e7fa 44be c0ab 133d 240a bc3d 5ccc 1abc
00000040: f160 163e b7e8 413c e469 b93d 9018 2d3e
00000050: f9e1 0c3d dab3 91be 17d3 68be a866 c13e
00000060: 9cb0 1cbc 8634 cb3d a1d2 e43d 02b6 b3bd
00000070: 2d1d 16bd 7ea4 333e 3d87 f5bd f6bd a73d
00000080: 734f fe3d 76e7 0c3e 9165 69bd 72e3 8f3e
00000090: cfd1 163e 5351 8ebd 2577 c3be 9d61 03bf
000000a0: 3f8c 483d 83bb d03c aeee 0bbe 11e7 483e
000000b0: 403d b53d 1983 863e 9374 3e3e ec2e d33d
000000c0: 61e5 91be 903e 0cbf 4f37 643e 1514 bbbe
000000d0: 5b0c 1f3e 367e e03d 4864 74bd 061f a9be
000000e0: dc30 d93e 868f 9abe ea0b 4b3e 30cd febd
000000f0: 3458 83bd bb07 dbbd 2316 623d ffc7 9ebd
00000100: 453e 9b3c 25a2 c3be c8e5 4b3e da77 abbe
00000110: cdde c93d 74a2 1fbd a2e0 083d f701 893e
00000120: 8804 87be a524 91be 1c9f 3a3e 7b96 343d
00000130: 4986 3bbe 51f6 23be ffa1 273e f5ba 26be
00000140: c9bc c8be 99d7 8b3e f136 ee3d cd74 91be
00000150: e840 91be 8a62 83be 29d8 f53e 6af9 5fbe
00000160: 5440 8abe 5255 db3d 1983 6c3c bc2c 7f3e
00000170: 450a ed3d 9116 333e 4d63 e5bd e89f 393e
00000180: 97f1 15bf 8921 b8be 7d27 f63e 3217 06bf
00000190: b33e ecbc 5f01 2cbd 9c93 d6bd fe7e e7be
000001a0: d81a 02bd 5af2 183e 171e 65be 38d0 4e3e
000001b0: f9e5 ef3c 7369 acbd 954e 063d 6ff6 4abe
000001c0: 392e 0e3e eb82 fd3d 32e4 083d 4335 3d3e
000001d0: 485a 243e b813 c8be bf85 a3be e2cf d33e
000001e0: 1665 d6be 20ed 8b3e 9e9c 943d 133a 8b3d
000001f0: 3395 debe 5b35 42be 025d ddbe 1d71 dcbe
00000200: cf1d 083f 0137 da3d 8429 513d 9101 a3be
00000210: 282b 12be 93e6 903c fb9a 0f3e 5400 f63d
00000220: 1de6 26be b652 ffbe 2cd4 c83c 51ac 89bd
00000230: 965f 86bd f499 71be b1c1 aa3d c36c 0f3e
00000240: 3c4f 9f3d 062e 0bbd 53fd 82be d038 4b3d
00000250: 6e60 edbe 4293 903d 916c 8abe fb53 0a3d
00000260: 34d2 5abd bffb 9f3d 338f f63e d4ab a03d
00000270: 57cd b3be 8f37 993d 0dbc be3d 7ed5 87be
00000280: a8b1 e1bd 3936 f9bd 370c f13e fba1 00bf
00000290: ed0c 1eba 716e e6bc f7a4 70be a436 f53d
000002a0: 05c6 d63d 3cae 133e 43bb 3a3e 3d2e 7ebe
000002b0: 6301 21be 9284 67be 3281 30bd 0625 b83c
000002c0: 18b9 8c3d 2d72 0e3e 13ed 00bc 9c28 acbd
000002d0: adc6 d83d 0a76 a9be 5ef1 2abe b3fd 06be
000002e0: 2e60 3d3e f2f3 1dbe ae77 1cbe 2aaa 1b3e
000002f0: c5e5 61be 24c3 983c ae3a 713c fecb 4e3c
00000300: 44f6 49be 1fca 67bd 7100 063d faf3 a7be
00000310: d1db 903d ca0f c5bd 72a5 dc3d 9ffd d93d
00000320: ab98 713e a303 b8be cbc2 82bd b4ab c1be
00000330: 2d84 b33c dc55 87be 1992 193e b317 103e
00000340: 960d 96be 2b1d fcbe 2582 c4be fc0c 61be
00000350: 9bb6 de3e f461 403e 13bd 363e b564 2e3e
00000360: 529b 9cbe 555d 2a3e fe70 cb3e 34d6 d0be
00000370: 9caa b4bd fe30 3abe 4dc5 02be c2e2 abbc
00000380: 1b2d e63c 06b9 4f3e a3df b1be aabc d53d
00000390: 65c0 513e 386c 7dbe 006e 8ebe 91fb 073e
000003a0: c10a 9ebe 11ee 1f3d 8ebd 273e f6a8 643e
000003b0: 786c 8abe 6238 c4be 7879 213d 148a 0d3d
000003c0: 5003 ec3b af7f be3d f589 89be cad2 0b3e
000003d0: 028f 6abe 9fb3 a63e a361 a7be ad95 57be
000003e0: fdd7 023b 3d33 5ebd 01df 823d 2cfa 80be
000003f0: 0aeb 283e 24c5 cd3d 8861 0f3e a84e a7bd

dense_2/bias:0 f4 [7]
0.074177794 -0.19325577 -0.043806825 0.004652089 0.11379733 -0.14595899 -0.06264561
00000000: 87ea 973d d7e4 45be c96e 33bd 8d70 983b
00000010: 930e e93d 4676 15be 574c 80bd

dense_1/kernel:0 f4 [640, 100]
0.0169823 0.029000262 -0.10175523 0.020844152 -0.18605742 -0.13585801 -0.006389448 -0.2012059
0.07407352 -0.079134636 -0.015662782 0.06355649 -0.040655658 0.049697287 0.17719078 -0.028059613
-0.007830973 0.033297192 -0.000688751 0.12926605 -0.037076022 -0.09448602 -0.10123819 0.088887416
-0.12788233 -0.12725773 -0.034085713 0.03089513 0.019211385 -0.15536875 0.027332285 -0.011765078
-0.26820844 -0.103038535 0.036130417 -0.029705677 0.03814418 -0.21966383 0.016637554 -0.16956387
-0.031265076 -0.218862 -0.051449083 -0.004939486 0.21324582 0.032395635 -0.1279558 0.15486299
0.10135635 -0.017056588 -0.06210586 0.016143568 0.030010387 -0.15632321 -0.07437766 0.11273131
-0.05647857 -0.101177916 0.03891126 0.04259914 -0.1795073 -0.031489205 0.2887589 0.08217017
-0.059465468 0.02349574 -0.10895169 0.09348621 -0.37991723 0.13844918 -0.046906866 0.09322294
-0.031502623 -0.18261641 -0.016373111 0.02298578 -0.2437336 -0.106643096 -0.073465765 -0.108269915
-0.17507112 0.023930658 0.023954771 0.07138585 0.054848716 0.037522636 0.099484585 -0.047821984
0.058543004 -0.24007972 0.1271126 -0.15258104 0.23852324 0.013526757 0.25234723 -0.21014717
-0.1408304 -0.15716636 0.14820075 0.04760134 -0.010868583 -0.0037864957 -0.102433205 -0.15892603
-0.010648816 -0.3220527 -0.08545941 0.10315069 0.03787357 -0.059746373 -0.124182835 -0.14612892
0.04807546 0.0533954 0.15401463 -0.039059818 0.0498345 -0.112053394 -0.26153275 0.000763832
-0.08818589 -0.14462103 0.16240914 0.20819633 -0.2787863 -0.22618927 -0.0721148 -0.039757926
-0.009377292 0.05710144 -0.06415521 -0.16879421 -0.050783593 0.16646728 -0.037376475 0.13469256
-0.0005318648 0.08992448 0.16926792 -0.13452454 -0.03194889 -0.06947943 0.24816974 -0.3851011
-0.13846219 -0.024630988 -0.11993769 0.16022837 -0.029044922 -0.13154702 0.030391017 -0.17510535
0.27868214 -0.09295254 0.062491037 0.02091401 0.05368689 0.06719734 0.33839342 0.055601995
-0.22580601 0.160343 0.2742479 0.031009143 -0.19117671 0.28533208 -0.036614813 -0.0038570124
-0.3828749 0.020516763 -0.21269113 -0.010772489 0.24473882 -0.26055413 -0.08576909 0.020088095
-0.06886583 -0.31367922 0.14685032 0.23865306 -0.011906395 0.14203681 0.034004994 0.11900009
-0.045687404 -0.066066496 -0.0010506199 -0.14456613 0.0737703 0.048786983 -0.11396445 0.061233938
0.06300792 0.14680432 -0.1786204 0.113683075 0.06620766 0.1182736 -0.26640496 0.11735524
-0.0069058673 -0.39010623 0.07595265 0.095257536 -0.27183655 0.22118741 -0.2055599 -0.011331671
0.044034515 -0.24732201 0.012883803 -0.113283224 0.10974991 0.36825606 0.07317983 0.11453691
-0.08291512 0.13738832 0.07183372 -0.042592436 -0.30471823 0.035265673 0.14829274 -0.36366773
-0.049003687 0.041253645 -0.120604664 -0.030650329 0.14334509 -0.19764931 0.06675432 0.095778756
-0.31436586 0.19641195 -0.121264145 -0.0029732417 0.20837866 0.029410541 -0.03901677 -0.34312677
0.21010624 -0.09561597 -0.20021154 0.13344073 -0.13843527 0.014186056 0.17475481 0.13771011
-0.14574304 -0.15771979 0.07102238 0.18284674 -0.08784352 0.032195635 -0.13627875 -0.17358771
00000000: 771e 8b3c f591 ed3c 0c65 d0bd 5bc1 aa3c
00000010: d685 3ebe 5d1e 0bbe 935e d1bb eb08 4ebe
00000020: dcb3 973d 5711 a2bd 3c4f 80bc e829 823d
00000030: 8c86 26bd 628f 4b3d 8071 353e 46dd e5bc
00000040: 7b4d 00bc a362 083d 4c8d 34ba 525e 043e
00000050: 07dd 17bd e381 c1bd f855 cfbd 9b0a b63d
00000060: 96f3 02be da4f 02be 769d 0bbd c917 fd3c
00000070: 3261 9d3c fc18 1fbe f5e7 df3c 50c2 40bc
00000080: 9e52 89be de05 d3bd 7dfd 133d 5259 f3bc
00000090: 123d 1c3d 8eef 60be 7b4b 883c 27a2 2dbe
000000a0: cf0f 00bd 5c1d 60be 46bc 52bd 69db a1bb
000000b0: 1d5d 5a3e 49b1 043d d806 03be 6794 1e3e
000000c0: eb93 cf3d 42ba 8bbc b762 7ebd 843f 843c
000000d0: 58d8 f53c 3113 20be 5153 98bd acdf e63d
000000e0: 1356 67bd 5e36 cfbd 6a61 1f3d 707c 2e3d
000000f0: c3d0 37be d3fa 00bd 35d8 933e d648 a83d
00000100: 1092 73bd 237a c03c 1022 dfbd b375 bf3d
00000110: 8384 c2be 9fc5 0d3e 6a21 40bd abeb be3d
00000120: e508 01bd ccff 3abe e720 86bc ad4c bc3c
00000130: 4d95 79be b267 dabd 3875 96bd 9ebc ddbd
00000140: d845 33be 3a0a c43c cc3c c43c bf32 923d
00000150: 0ca9 603d 56b1 193d 93be cb3d fce0 43bd
00000160: caca 6f3d 75d7 75be ce29 023e 343e 1cbe
00000170: 703f 743e 559f 5d3c a833 813e d230 57be
00000180: d835 10be 38f0 20be f0c1 173e 9ff9 423d
00000190: 2412 32bc db26 78bb 80c8 d1bd 81bd 22be
000001a0: 5f78 2ebc 17e4 a4be 5805 afbd ab40 d33d
000001b0: 5121 1b3d 9db8 74bd 9253 febd d2a2 15be
000001c0: c6ea 443d 23b5 5a3d 03b6 1d3e 30fd 1fbd
000001d0: 431f 4c3d 407c e5bd 9fe7 85be e63b 483a
000001e0: ce9a b4bd 8917 14be 954e 263e 6b31 553e
000001f0: 14bd 8ebe 299e 67be edb0 93bd 35d9 22bd
00000200: 37a3 19bc 33e3 693d cf63 83bd 64d8 2cbe
00000210: 7502 50bd 6676 2a3e 1318 19bd d9ec 093e
00000220: d86c 0bba 532a b83d 9254 2d3e cdc0 09be
00000230: d7dc 02bd 3b4b 8ebd 3520 7e3e f92b c5be
00000240: 08c9 0dbe edc6 c9bc e4a1 f5bd e812 243e
00000250: 9eef edbc 43b4 06be 95f6 f83c d14e 33be
00000260: 6daf 8e3e e75d bebd 9af6 7f3d dc53 ab3c
00000270: c9e6 5b3d c29e 893d e741 ad3e ebbe 633d
00000280: b139 67be f530 243e 396a 8c3e e306 fe3c
00000290: d4c3 43be 0c17 923e 6af9 15bd eec5 7cbb
000002a0: 2e08 c4be c512 a83c b4cb 59be 187f 30bc
000002b0: d09c 7a3e 5a67 85be b4a7 afbd ca8f a43c
000002c0: 8709 8dbd 909a a0be ee5f 163e 7861 743e
000002d0: 0a13 43bc 1972 113e d248 0b3d 52b6 f33d
000002e0: b722 3bbd df4d 87bd f4b4 89ba 2509 14be
000002f0: e214 973d dcd4 473d 3266 e9bd 70d0 7a3d
00000300: 4c0a 813d df53 163e 44e8 36be acd2 e83d
00000310: e297 873d 6e39 f23d 3b66 88be f257 f03d
00000320: 9d4a e2bb 01bc c7be 108d 9b3d 6216 c33d
00000330: 292e 8bbe f47e 623e 4b7e 52be 79a8 39bc
00000340: 895d 343d fb41 7dbe 9616 533c 0901 e8bd
00000350: 90c4 e03d 0f8c bc3e 4fdf 953d 5492 ea3d
00000360: 67cf a9bd 86af 0c3e 8f1d 933d 6875 2ebd
00000370: 0704 9cbe bd72 103d 0dda 173e a832 babe
00000380: 17b8 48bd 95f9 283d 94ff f6bd 6616 fbbc
00000390: 0ec9 123e 9564 4abe 7db6 883d a727 c43d
000003a0: 90f4 a0be 3720 493e 5659 f8bd b8da 42bb
000003b0: 3761 553e 60ee f03c 0cd0 1fbd 50ae afbe
000003c0: 1726 573e 4ed2 c3bd 4104 4dbe b0a4 083e
000003d0: fac1 0dbe a26c 683c edf2 323e e103 0d3e
000003e0: aa3d 15be 4c81 21be 2e74 913d 2d3c 3b3e
000003f0: 4ee7 b3bd 92df 033d a88c 0bbe fac0 31be

dense_1/bias:0 f4 [100]
-0.044605847 0.04424775 0.00083840324 -0.09276303 -0.067775846 -0.05910475 -0.004084198 0.016114673
0.01788528 0.0074385176 0.12220113 0.0016193968 0.09191921 0.047659606 0.0149620995 0.0053634
0.044862296 0.068760835 -0.18050586 -0.19607228 -0.0064671566 0.0767514 -0.0042716446 -0.117850296
-0.20628121 0.0028079338 -0.050485067 -0.111838706 0.0644289 -0.010453035 -0.04654086 -0.01663845
0.035971753 0.17854878 -0.12650794 0.06158277 -0.04552887 -0.19015975 0.23263176 -0.15462515
0.03543518 -0.13768634 0.22431046 -0.07907056 0.08168488 0.06191402 0.033655245 0.22615524
0.04769752 -0.003857072 -0.06784433 -0.072326966 0.13343742 -0.02028206 0.04839211 0.06760207
0.07922571 0.00799316 0.039611302 0.040596012 0.07236009 0.09049642 0.066230856 0.11458436
0.07216898 -0.0152567765 0.103291675 -0.08838131 -0.17149645 -0.090346895 -0.1042815 0.016819509
-0.15032357 -0.047742415 -0.020834237 0.012517365 -0.11682103 -0.04616299 0.06943152 0.25913128
-0.067323506 -0.045476012 0.15731004 -0.09161383 0.042848784 0.005467829 0.02330837 0.04057416
0.01396183 0.034285653 -0.0017231453 0.018152166 0.12942994 0.15711874 -0.07969227 -0.004333345
0.10625329 -0.01573245 0.0358111 0.1517452
00000000: 9fb4 36bd 213d 353d 4ac8 5b3a 8bfa bdbd
00000010: 10ce 8abd d317 72bd bcd4 85bb eb02 843c
00000020: 2784 923c cfbe f33b 9644 fa3d f141 d43a
00000030: 2440 bc3d b836 433d 9823 753c 76bf af3b
00000040: 87c1 373d 7bd2 8c3d 87d6 38be 2cc7 48be
00000050: 71ea d3bb d72f 9d3d 27f9 8bbb 7f5b f1bd
00000060: 623b 53be 5005 383b 6ec9 4ebd b10b e5bd
00000070: 4df3 833d 3543 2bbc a1a1 3ebd 5c4d 88bc
00000080: 1e57 133d 7ed5 363e 4c8b 01be 373e 7c3d
00000090: 7b7c 3abd 3db9 42be 0537 6e3e 0e56 1ebe
000000a0: 7b24 113d a6fd 0cbe a4b1 653e bfef a1bd
000000b0: 674a a73d 8e99 7d3d 15da 093d 3d95 673e
000000c0: 7a5e 433d eec6 7cbb f8f1 8abd 2920 94bd
000000d0: d2a3 083e 9026 a6bc ce36 463d f472 8a3d
000000e0: 1741 a23d bef5 023c 763f 223d 0148 263d
000000f0: 8731 943d 3056 b93d 0ba4 873d 34ab ea3d
00000100: 55cd 933d 8ff7 79bc 968a d33d 4301 b5bd
00000110: c49c 2fbe cb07 b9bd 8a91 d5bd 11c9 893c
00000120: 6cee 19be 8d8d 43bd 90ac aabc a215 4d3c
00000130: dd3f efbd 6715 3dbd 1d32 8e3d dbac 843e
00000140: e8e0 89bd 0e45 3abd e215 213e 08a0 bbbd
00000150: 3582 2f3d 792b b33b 32f1 be3c 1731 263d
00000160: 29c0 643c 1d6f 0c3d 29db e1ba dab3 943c
00000170: 4889 043e bce3 203e b335 a3bd bcfe 8dbb
00000180: 539b d93d 57e1 80bc a9ae 123d 1863 1b3e

conv1d_2/kernel:0 f4 [64, 64, 3]
-0.050978728 0.11964631 0.27068672 -0.04412081 0.03433838 0.041531824 0.016552031 0.009813058
-0.14609087 0.02365244 0.2056498 0.19624287 0.00072344625 -0.15867391 -0.24997987 0.22171532
0.019703608 -0.015177908 0.032259353 -0.013400957 -0.051695257 -0.017059565 -0.08749721 0.016878016
0.02048117 0.0063416823 0.31120566 -0.053155255 -0.034454994 -0.18262471 -0.08248662 0.043012574
-0.02552489 -0.11255909 0.10331979 -0.06901159 0.04271832 -0.117065184 -0.16253132 0.0688627
0.35059842 0.20811768 -0.13201776 -0.05892321 -0.0934486 -0.10470609 0.07425932 0.13243817
-0.20687896 -0.14251266 -0.10287415 0.16776617 0.113920406 -0.0018914464 0.22614406 0.0835217
0.086148016 0.022902098 0.101710476 0.004587855 -0.0006997771 0.09984774 0.113475546 -0.018829439
-0.023544014 0.106080234 0.1281479 0.0142842345 0.04838477 -0.13069901 -0.30354688 -0.32894164
-0.20495602 -0.26570642 -0.03386134 -0.0032922372 0.08941228 0.12990302 0.31975892 0.19986275
0.27746484 0.018182626 0.054536782 0.15670191 0.08221748 0.023166586 0.17480496 -0.1729027
-0.032538824 -0.15676898 0.16420726 0.19739704 0.24528052 -0.2153909 0.07852816 0.0031847956
0.13279392 0.15460509 -0.027516697 -0.2969641 -0.22527042 -0.090264216 -0.12051572 0.07059692
-0.007877109 -0.019598912 0.039150335 -0.11097419 0.119501345 -0.029820701 0.2851337 -0.033291616
0.06463607 0.20835236 0.06679518 0.18414533 0.080247045 -0.12182879 0.024385842 0.12001034
0.1450474 -0.07196137 0.033157934 -0.16466098 -0.2565458 -0.346462 -0.13999932 -0.3351801
-0.3038133 0.019466475 -0.070116326 0.06606428 -0.19155385 -0.016860884 -0.1856053 -0.14953661
-0.11239163 0.028833482 -0.10790432 -0.13950476 -0.20524433 -0.13938159 -0.058344692 0.022851974
-0.15857723 -0.15077735 -0.13023137 0.08423264 0.11393014 -0.056746922 0.14432727 0.046234507
0.23017335 0.17352594 0.26909214 0.24074584 0.049341284 -0.044120677 0.14875983 0.03499831
-0.10440078 0.07830831 0.013916905 0.058885112 0.1397615 0.09418397 0.03526891 -0.037892632
0.10865745 -0.08498226 0.08225104 0.053839102 0.13520992 0.38063818 0.22382104 0.1925622
0.19787425 0.27319986 0.23563135 -0.023473907 -0.0020179278 -0.11997714 -0.027774576 0.08342824
0.043635678 0.15218 -0.02154871 0.18815038 0.13825566 0.16084455 0.3656049 0.27318674
0.041425247 0.113115445 0.09509001 0.012307032 0.1091907 0.122933425 -0.1110476 -0.18243246
-0.04939873 -0.023328045 0.1334315 -0.024079625 -0.23722985 -0.06973325 -0.12969461 -0.042141076
0.023350453 0.07368952 -0.06825042 0.10114604 0.084554866 -0.039260294 0.11043054 -0.028650042
0.11407246 0.13709632 0.2906218 0.16971275 0.13297622 0.20982175 0.15159616 -0.058142465
-0.06286104 0.08049343 0.019762624 -0.016845858 -0.16176893 -0.07529687 0.054671615 0.049335983
-0.006561671 0.08327364 -0.2971154 -0.07684503 -0.015659688 -0.33889177 -0.21757284 -0.11784364
-0.00018101305 0.031291645 -0.065437846 0.05937127 0.0679535 -0.02256653 -0.0007552011 0.05418057
0.0018299948 -0.046652053 -0.049993552 0.090719245 0.01955894 -0.019728238 0.12567122 -0.102972746
00000000: 12cf 50bd 2009 f53d 7397 8a3e 06b8 34bd
00000010: 67a6 0c3d 461d 2a3d 2098 873c f3c6 203c
00000020: d898 15be c3c2 c13c dc95 523e e4f3 483e
00000030: a8a5 3d3a 6a7b 22be b9fa 7fbe 5709 633e
00000040: 7669 a13c c3ac 78bc 6222 043d b08f 5bbc
00000050: 68be 53bd 80c0 8bbc bd31 b3bd c443 8a3c
00000060: 20c8 a73c e3cd cf3b 5956 9f3e 53b9 59bd
00000070: ae20 0dbd f901 3bbe bfee a8bd f42d 303d
00000080: 9319 d1bc 6185 e6bd 5399 d33d f355 8dbd
00000090: 68f9 2e3d dfbf efbd 9c6e 26be e307 8d3d
000000a0: a381 b33e cd1c 553e aa2f 07be 7759 71bd
000000b0: fb61 bfbd 2670 d6bd 4515 983d df9d 073e
000000c0: 14d8 53be d7ee 11be afaf d2bd e5ca 2b3e
000000d0: 1a4f e93d 69ea f7ba 4f92 673e 6d0d ab3d
000000e0: 5f6e b03d 2e9d bb3c 954d d03d b855 963b
000000f0: 3f71 37ba f97c cc3d de65 e83d 3240 9abc
00000100: 60df c0bc 9840 d93d 3439 033e 6c08 6a3c
00000110: 1c2f 463d f6d5 05be 7f6a 9bbe 0a6b a8be
00000120: fedf 51be ac0a 88be 30b2 0abd 93c2 57bb
00000130: c91d b73d 4c05 053e 71b7 a33e d2a8 4c3e
00000140: df0f 8e3e bbf3 943c f661 5f3d 7776 203e
00000150: a361 a83d dac7 bd3c 1200 333e 680d 31be
00000160: 6e47 05bd 0c88 20be f325 283e 7322 4a3e
00000170: d12a 7b3e 6f8f 5cbe 5fd3 a03d 01b8 503b
00000180: 21fb 073e cc50 1e3e b26a e1bc ae0b 98be
00000190: 4aad 66be 72dc b8bd f2d0 f6bd 1e95 903d
000001a0: fd0e 01bc e68d a0bc 1a5c 203d 7046 e3bd
000001b0: 1fbd f43d 8b4a f4bc 0bfd 913e ca5c 08bd
000001c0: ea5f 843d 525a 553e e9cb 883d 9890 3c3e
000001d0: 9058 a43d 5f81 f9bd d1c4 c73c fbc7 f53d
000001e0: 4e87 143e 7c60 93bd 9dd0 073d e39c 28be
000001f0: f959 83be 7863 b1be fb5b 0fbe ba9c abbe
00000200: 6b8d 9bbe 2878 9f3c 2699 8fbd b64c 873d
00000210: b126 44be d61f 8abc 510f 3ebe 2020 19be
00000220: 952d e6bd 3234 ec3c f1fc dcbd 56da 0ebe
00000230: 922b 52be 0cba 0ebe d8fa 6ebd 1034 bb3c
00000240: 1262 22be 6165 1abe 5f5b 05be 2a82 ac3d
00000250: 3554 e93d 766f 68bd 87ca 133e 6560 3d3d
00000260: 90b2 6b3e c9b0 313e 72c6 893e 1486 763e
00000270: 161a 4a3d e2b7 34bd 7f54 183e 635a 0f3d
00000280: 13d0 d5bd 1b60 a03d bb03 643c 8431 713d
00000290: a31d 0f3e 86e3 c03d 2276 103d 4e35 1bbd
000002a0: cc87 de3d 2e0b aebd 3c73 a83d 6486 5c3d
000002b0: 7874 0a3e 02e3 c23e 5831 653e 062f 453e
000002c0: 8c9f 4a3e dae0 8b3e 5849 713e 5a4c c0bc
000002d0: 363f 04bb 93b6 f5bd 8287 e3bc 6ddc aa3d
000002e0: 53bb 323d 13d5 1b3e ec86 b0bc 7eaa 403e
000002f0: e492 0d3e 6fb4 243e 9130 bb3e 22df 8b3e
00000300: 85ad 293d 12a9 e73d 8dbe c23d 6fa3 493c
00000310: 609f df3d 85c4 fb3d ed6c e3bd 93cf 3abe
00000320: 5356 4abd 751a bfbc 44a2 083e a242 c5bc
00000330: 62ec 72be 4ed0 8ebd aace 04be 1f9c 2cbd
00000340: 7349 bf3c 88ea 963d e0c6 8bbd a825 cf3d
00000350: 1a2b ad3d 67cf 20bd 6829 e23d 7eb3 eabc
00000360: d29e e93d fa62 0c3e 61cc 943e 2ec9 2d3e
00000370: eb2a 083e 83db 563e 063c 1b3e cb26 6ebd
00000380: 4abd 80bd bdd9 a43d 3ae5 a13c 5300 8abc
00000390: c1a6 25be 3f35 9abd 58ef 5f3d 8714 4a3d
000003a0: 4903 d7bb 5f8b aa3d 821f 98be ed60 9dbd
000003b0: bf48 80bc 3983 adbe 6acb 5ebe 0258 f1bd
000003c0: 52ce 3db9 ab2b 003d 4704 86bd 4a2f 733d
000003d0: 342b 8b3d 72dd b8bc b0f8 45ba 72ec 5d3d
000003e0: 70dc ef3a 3916 3fbd 0ac6 4cbd 03cb b93d
000003f0: 123a a03c 1d9d a1bc f5af 003e 60e3 d2bd

conv1d_2/bias:0 f4 [64]
-0.35975403 0.03445092 0.04756381 -0.09812564 0.013784642 -0.06825593 -0.12454958 -0.10115209
0.10885243 -0.03535834 0.1154356 0.11708185 0.11204093 -0.18687028 0.040455405 -0.02519313
-0.031541478 0.20978962 -0.037796438 -0.16260065 0.084317766 -0.14942521 -0.0024349226 -0.10798051
-0.005849158 0.009623328 -0.03126488 0.017099308 -0.07229026 0.04769216 -0.03047857 -0.07533846
-0.020173432 -0.12247446 -0.02129423 -0.035851795 -0.082490996 -0.08491537 -0.079688616 0.055613607
0.0037435684 -0.0032246187 0.05953743 0.13916929 0.030956436 -0.046253294 0.028065432 -0.06674414
0.09101977 0.013981858 -0.34347504 -0.016668826 0.024899667 -0.25877842 0.08772626 -0.014824818
0.04231028 -0.07699672 -0.025272151 -0.3570361 -0.06272622 0.2610326 0.043578874 -0.0919929
00000000: ae31 b8be 681c 0d3d 45d2 423d 18f6 c8bd
00000010: fbd8 613c c4c9 8bbd da13 ffbd d428 cfbd
00000020: 06ee de3d e8d3 10bd 8069 ec3d 9cc8 ef3d
00000030: b775 e53d ec5a 3fbe 91b4 253d d361 cebc
00000040: a331 01bd 17d3 563e 70d0 1abd c980 26be
00000050: cbae ac3d ec02 19be 3993 1fbb e324 ddbd
00000060: 4baa bfbb 2aab 1d3c 9a0f 00bd d913 8c3c
00000070: ea0c 94bd db58 433d 32ae f9bc 0d4b 9abd
00000080: c142 a5bc e4d3 fabd 3d71 aebc 55d9 12bd
00000090: 0af1 a8bd 1ce8 adbd c933 a3bd 18cb 633d
000000a0: a856 753b 2054 53bb 85dd 733d 6582 0e3e
000000b0: 5a98 fd3c 1874 3dbd 7ae9 e53c 27b1 88bd
000000c0: 9368 ba3d 2a14 653c f6db afbe 108d 88bc
000000d0: 63fa cb3c 9b7e 84be d3a9 b33d cbe3 72bc
000000e0: 8b4d 2d3d 75b0 9dbd 8b07 cfbc 70cd b6be
000000f0: 9b76 80bd 11a6 853e c37f 323d c666 bcbd

conv1d_1/kernel:0 f4 [64, 6, 3]
0.07883851 0.11715116 0.15627752 0.14291771 -0.055831023 0.17926955 0.023114327 -0.05762824
0.09309779 -0.065329604 0.11790768 0.18210638 -0.123932235 0.15648726 0.037389506 0.23771814
0.23027997 0.2561312 -0.1232573 -0.1344485 -0.23923358 -0.27048355 -0.24012598 -0.20333351
0.33679304 0.31519702 0.07662434 0.16581637 -0.0704301 0.022694973 0.12935777 0.18220165
0.17582561 -0.01446948 -0.032904983 0.0030434101 -0.088194184 -0.057427153 -0.22751588 -0.3266424
-0.00038498844 -0.07591549 0.21277018 0.1864965 0.34555373 0.016202722 -0.054496747 -0.036615185
0.17388847 0.08562382 0.17081721 -0.14475909 0.10474766 -0.111067146 -0.111759074 0.021732254
-0.03219242 -0.13351075 0.035311215 0.082635134 0.1673117 0.00049041456 -0.19528437 0.28706226
0.108697705 -0.36875278 0.03590227 0.03837838 -0.0022022629 -0.16065106 -0.108748585 0.2900017
-0.21328525 -0.20824812 -0.118257806 0.163424 -0.06500399 0.07202362 -0.109861284 0.098781735
0.13556726 -0.25908777 -0.27947372 -0.080839016 -0.09955363 -0.06631814 -0.20690899 0.11688505
-0.17292807 -0.32942298 -0.08136969 -0.0077462196 -0.1263534 0.025880946 -0.19703332 -0.22831297
-0.16760679 0.021451203 -0.10869291 -0.03348939 -0.048053633 0.043437965 0.113335766 -0.00059435866
0.19174126 -0.1266784 -0.20491417 -0.34403244 0.16082455 -0.058140147 0.10706404 0.30567244
0.030029615 -0.047357798 -0.29226914 -0.17954801 -0.23805991 -0.02272439 0.09251377 0.05839669
-0.32550067 -0.24904503 -0.09098595 0.092104636 -0.11302815 0.11442376 -0.049923852 -0.099962965
0.10062038 -0.12986624 0.1603425 0.11816805 -0.19838507 -0.19402266 -0.32895973 0.22340518
0.1749627 -0.19786231 0.09437028 0.14208445 0.17194518 0.1166116 0.092138745 0.14065504
-0.039282534 0.04344017 0.13072929 0.24625857 0.011620322 -0.058350187 0.17072883 0.023291837
-0.22956005 0.14630818 -0.08723649 0.1452705 0.06073401 0.07126652 0.35137245 -0.092842005
0.08022951 -0.14943169 -0.14217958 0.09407041 0.19555137 0.37329286 0.42788517 0.23386438
0.1516125 0.012121807 0.13644966 0.100030616 0.024524191 0.2757324 -0.13983108 -0.07747502
-0.08951947 0.24015181 0.07417101 -0.19076431 0.039192118 0.0643549 -0.03183874 0.19848944
0.21617253 0.23066197 -0.18381101 0.088745646 0.1357446 -0.22876875 -0.2409362 -0.13155995
-0.27726775 -0.13368396 -0.20077515 0.023790548 0.060199305 -0.16502188 0.11130087 -0.0010767059
0.11300937 -0.08462669 0.055541046 0.1272172 -0.07433969 0.09253136 0.058990046 0.33065286
0.39036697 0.4161929 0.23182844 0.030418046 0.16495167 -0.0051776776 0.07615048 -0.07310558
0.054075647 -0.098089755 -0.025263648 0.083951786 -0.0737711 0.008521104 0.090016074 0.23569441
-0.07141084 0.12613086 0.048918974 -0.18013851 0.27414832 -0.041263826 -0.35372463 -0.084470905
0.01951423 -0.24873656 -0.19658346 0.013690493 0.18095656 0.04109552 -0.04667211 0.14010644
-0.03261962 0.16064392 0.27651235 -0.21325822 -0.15355833 0.35421678 -0.2501812 -0.15185544
0.28591508 -0.1529071 0.11186158 -0.02773577 -0.06109018 -0.16219088 -0.12741728 -0.101116076
00000000: 1676 a13d f3ec ef3d 3707 203e 0559 123e
00000010: 12af 64bd 7092 373e 425a bd3c 970b 6cbd
00000020: 0eaa be3d 87cb 85bd 9579 f13d 187a 3a3e
00000030: 2fd0 fdbd 323e 203e bd25 193d 626c 733e
00000040: 83ce 6b3e a123 833e 536e fcbd deac 09be
00000050: a6f9 74be d27c 8abe 96e3 75be a936 50be
00000060: 2370 ac3e 8161 a13e 39ed 9c3d c4cb 293e
00000070: a83d 90bd cfea b93c 5d76 043e 1293 3a3e
00000080: a10b 343e 6611 6dbc 60c7 06bd f373 473b
00000090: 279f b4bd bc38 6bbd ecf9 68be ac3d a7be
000000a0: 46d8 c9b9 9579 9bbd 6de0 593e f0f8 3e3e
000000b0: 6bec b03e 92bb 843c fb37 5fbd cef9 15bd
000000c0: d20f 323e 8b5b af3d b5ea 2e3e ba3b 14be
000000d0: f185 d63d 2c77 e3bd f1e1 e4bd d707 b23c
000000e0: 33dc 03bd 0bb7 08be 7ea2 103d 9c3c a93d
000000f0: c253 2b3e 2a8f 003a a0f8 47be d3f9 923e
00000100: e79c de3d 2acd bcbe 420e 133d a632 1d3d
00000110: d753 10bb b681 24be 94b7 debd 1a7b 943e
00000120: 7367 5abe ff3e 55be 2631 f2bd 9f58 273e
00000130: d020 85bd 1f81 933d f4fe e0bd 144e ca3d
00000140: 25d2 0a3e 27a7 84be 2e17 8fbe ed8e a5bd
00000150: c6e2 cbbd ced1 87bd f3df 53be 6e61 ef3d
00000160: 0e14 31be 21aa a8be 27a5 a6bd 00d4 fdbb
00000170: c962 01be 4704 d43c 1ac3 49be e0ca 69be
00000180: 1da1 2bbe 6fba af3c 639a debd 2c2c 09bd
00000190: e3d3 44bd 02ec 313d 951c e83d bcce 1bba
000001a0: d257 443e fcb7 01be 05d5 51be 0525 b0be
000001b0: 31af 243e 5d24 6ebd 6444 db3d 1981 9c3e
000001c0: ab00 f63c 40fa 41bd 4da4 95be 6fdb 37be
000001d0: fac5 73be 8028 babc dc77 bd3d 5e31 6f3d
000001e0: 06a8 a6be a905 7fbe d756 babd 5ba1 bc3d
000001f0: 4d7b e7bd 0157 ea3d f47c 4cbd 62b9 ccbd
00000200: 0f12 ce3d a8fb 04be d330 243e 1702 f23d
00000210: 7525 4bbe e0ad 46be 696d a8be 54c4 643e
00000220: 6c29 333e 6b9c 4abe 3545 c13d 967e 113e
00000230: 6612 303e 10d2 ee3d 3db3 bc3d e007 103e
00000240: b9e6 20bd 52ee 313d e6dd 053e 352b 7c3e
00000250: 2a63 3e3c 9b00 6fbd 8ad3 2e3e 86ce be3c
00000260: ca11 6bbe d0d1 153e 0ba9 b2bd cac1 143e
00000270: 3ac4 783d 2ef4 913d 17e7 b33e f323 bebd
00000280: 5f4f a43d 9f04 19be 8697 11be fda7 c03d
00000290: 9e3e 483e 3e20 bf3e c413 db3e 257a 6f3e
000002a0: 4f40 1b3e 8b9a 463c 76b9 0b3e dadc cc3d
000002b0: f5e6 c83c cc2c 8d3e e12f 0fbe 39ab 9ebd
000002c0: fc55 b7bd 5bea 753e f8e6 973d b857 43be
000002d0: ea87 203d 80cc 833d 5769 02bd d140 4b3e
000002e0: 555c 5d3e a732 6c3e f438 3cbe 47c0 b53d
000002f0: a200 0b3e 5b42 6abe fbb7 76be a7b7 06be
00000300: 0af6 8dbe 73e4 08be 0098 4dbe 65e4 c23c
00000310: 8c93 763d 7ffb 28be b6f1 e33d 4120 8dba
00000320: 7571 e73d c250 adbd 027f 633d 3a45 023e
00000330: 683f 98bd 1581 bd3d 8c9f 713d 554b a93e
00000340: 2ede c73e 3c17 d53e 6f64 6d3e 442f f93c
00000350: 17e9 283e 82a9 a9bb c8f4 9b3d 61b8 95bd
00000360: 6d7e 5d3d 48e3 c8bd b6f5 cebc eaee ab3d
00000370: 4d15 97bd 1a9c 0b3c 595a b83d e059 713e
00000380: d93f 92bd 7328 013e 435f 483d 3b76 38be
00000390: 2b5d 8c3e 4204 29bd 651b b5be 15ff acbd
000003a0: 4edc 9f3c ccb4 7ebe 2d4d 49be 174e 603c
000003b0: ad4c 393e c753 283d 412b 3fbd 1078 0f3e
000003c0: 279c 05bd d77f 243e 0793 8d3e 5d60 5abe
000003d0: 653e 1dbe e75b b53e c017 80be fe7f 1bbe
000003e0: 7663 923e ae93 1cbe af17 e53d 2036 e3bc
000003f0: b239 7abd 5e15 26be ad79 02be f215 cfbd

conv1d_1/bias:0 f4 [64]
-0.2760533 0.13134612 0.17724006 0.08931095 0.13449737 0.0979053 -0.1905742 0.061265636
-0.122750476 0.02189302 -3.563502e-05 -0.13863268 0.072787195 0.011170093 0.11793906 0.054244682
0.053892396 -0.20828786 -0.16732049 0.030185256 -0.11810275 -0.016498242 0.106759444 0.17475592
0.10588722 -0.13377865 -0.28901345 -0.25003308 -0.16609554 0.111614056 -0.23859327 -0.16694878
-0.08200522 0.11834735 -0.078180924 -0.019018004 -0.19524293 -0.12573485 -0.16097759 0.085234284
0.013850573 0.19345239 0.23829517 0.025929242 0.2109468 -0.024980657 0.097157866 0.24800506
0.12266249 0.015787387 -0.24726066 -0.25245658 0.10247621 0.15623227 -0.073878616 0.062232587
-0.005253262 -0.2852347 -0.15019944 -0.030482685 -0.037133828 -0.1020521 -0.25016212 -0.27905795
00000000: dc56 8dbe 997f 063e 6b7e 353e a9e8 b63d
00000010: aeb9 093e 9382 c83d e225 43be adf1 7a3d
00000020: 9a64 fbbd fe58 b33c d076 15b8 baf5 0dbe
00000030: 7411 953d c402 373c 098a f13d ac2f 5e3d
00000040: 46be 5c3d 6a49 55be 1056 2bbe 1247 f73c
00000050: dbdf f1bd 5227 87bc b2a4 da3d 37f3 323e
00000060: 66db d83d 45fd 08be 92f9 93be 5604 80be
00000070: f314 2abe e995 e43d cb51 74be 9ff4 2abe
00000080: 5af2 a7bd 1860 f23d 521d a0bd a5cb 9bbc
00000090: c3ed 47be a3c0 00be 4fd7 24be 508f ae3d
000000a0: 84ed 623c 6218 463e a603 743e 9069 d43c
000000b0: 7002 583e 3ca4 ccbc b4fa c63d 0af5 7d3e
000000c0: 7936 fb3d 8d54 813c e631 7dbe fd41 81be
000000d0: 0cdf d13d 5afb 1f3e ac4d 97bd 99e7 7e3d
000000e0: 8e23 acbb 480a 92be e2cd 19be d3b6 f9bc
000000f0: a419 18bd b100 d1bd 4015 80be afe0 8ebe
