PhonePosition/ml-models/model_25_samples_Conv1D.onnx (onnx, 314814 bytes, 8 tensors)

dense_2/kernel:0 f4 [100, 6]
-0.13357936 0.050636403 0.1698757 -0.09496182 0.0646564 0.08538209 -0.34128675 -0.31154668
0.35829183 0.2292031 0.1036876 -0.10233603 0.03716838 -0.17427114 0.074301004 0.1735331
-0.08528791 -0.18571787 0.15260603 0.015270057 0.17744765 -0.071113676 0.052951127 0.046553876
0.38846868 0.11757687 -0.43600154 -0.056601137 0.047508366 0.1327097 0.031047618 -0.07900239
0.21615694 0.009688454 -0.12998562 -0.12926076 -0.32326195 0.010059999 0.39519283 -0.0115768565
-0.13066284 -0.38834342 0.13116619 0.120024025 0.14293835 -0.118214466 -0.084006734 0.07272547
-0.13388771 -0.3397212 -0.19222558 0.097341165 -0.14422773 0.012566101 0.01784 -0.03440357
-0.05197217 -0.119726464 0.098165125 -0.61480683 0.12397933 0.0021085024 0.11510002 -0.006838082
-0.05566527 -0.33020857 -0.101258114 -0.2960876 0.19613858 -0.14952812 -0.27860954 0.057319216
0.26849687 -0.1372985 -0.3883413 0.096129216 0.055617567 -0.29745623 -0.17171581 0.3501929
0.18430452 -0.035491668 -0.41013354 0.26269013 -0.0040813475 -0.007469371 -0.027711097 -0.14757694
-0.089776106 -0.2672366 0.04823909 -0.019021103 -0.18826064 0.065754384 0.0695589 -0.38307306
0.36470997 0.30586419 -0.33479223 0.12927683 0.12753607 -0.15064967 -0.026321493 -0.21495998
0.18762389 -0.17022982 -0.06320985 -0.21256755 -0.4926988 -0.24422005 0.04187654 0.19014788
0.21359447 -0.15173742 0.5332146 -0.26611134 -0.07497054 0.108861804 0.12533253 -0.16276123
0.07135475 0.009187347 0.08630071 -0.16747472 -0.28681418 0.119098686 0.068075895 -0.024125772
-0.015030071 -0.21475121 0.1694155 -0.6833071 0.41592643 -0.57025504 0.19828117 -0.055711932
-0.108799286 -0.25747448 -0.3274241 0.25156415 -0.46021456 0.28269285 -0.20593874 -0.12085777
-0.12307818 0.16073065 -0.23558834 -0.20758592 0.18761079 -0.22908424 0.41731936 -0.21137013
-0.33711538 -0.35326636 -0.46727756 0.09225816 -0.40337953 0.08100024 -0.1399151 0.057245526
0.12896097 -0.17050152 -0.022888105 0.43733945 -0.25218877 -0.14749838 -0.40131906 -0.1828374
0.048250537 0.28183445 0.03830222 -0.21535642 -0.41195598 -0.6211205 0.01800234 0.07617613
0.13703154 0.15727112 0.0106833065 0.26112974 0.4052651 -0.5317037 0.15353869 0.15410842
0.17109288 -0.1598544 -0.29220998 -0.41892242 0.34745687 -0.30220318 0.008377699 -0.055169065
-0.03174511 -0.37006193 0.09344552 0.034463055 0.039482206 -0.036411017 -0.28931636 -0.10607544
0.6801793 -0.3167819 -0.40116525 -0.23510276 0.17723691 -0.24420965 0.09028118 0.041765224
-0.15311953 0.13932723 0.009576401 0.07552809 -0.0077728652 -0.13017438 -0.22396252 -0.13205354
-0.18442437 0.33359277 -0.16290797 0.15547775 0.15110776 0.23954196 -0.39521602 0.03251782
-0.5955958 0.19875291 0.1263804 -0.22079398 0.5066787 0.17572436 -0.28898978 -0.20277593
-0.20572253 0.040473327 -0.32076806 0.060682006 -0.30506274 0.06882597 0.030709246 -0.17293778
-0.20767473 0.15730432 0.48242888 -0.23696868 -0.3320192 -0.13144758 0.32637304 0.3396569
-0.6696697 -0.12685494 -0.25380364 -0.40708703 0.109454475 0.19419155 -0.16004899 0.08620407
00000000: 07c9 08be 1e68 4f3d e5f3 2d3e 587b c2bd
00000010: 936a 843d cedc ae3d 23bd aebe 0c83 9fbe
00000020: 0772 b73e 38b4 6a3e 2a5a d43d 8d95 d1bd
00000030: df3d 183d 2274 32be 202b 983d a9b2 313e
00000040: 6eab aebd d32c 3ebe c144 1c3e 432f 7a3c
00000050: d6b4 353e 0ca4 91bd 48e3 583d 47af 3e3d
00000060: 5ee5 c63e 24cc f03d 983b dfbe 98d6 67bd
00000070: 2298 423d 0de5 073e 9357 fe3c 01cc a1bd
00000080: 3f58 5d3e 52bc 1e3c f31a 05be ef5c 04be
00000090: 9782 a5be b2d2 243c b756 ca3e dbac 3dbc
000000a0: 7bcc 05be f3d4 c6be 6e50 063e 28cf f53d
000000b0: 6e5e 123e 6d1a f2bd b90b acbd 17f1 943d
000000c0: dc19 09be f0ef adbe c8d6 44be ce5a c73d
000000d0: 6fb0 13be 0ce2 4d3c 3125 923c c2ea 0cbd
000000e0: c5e0 54bd 2633 f5bd cc0a c93d fb63 1dbf
000000f0: e0e8 fd3d cd2e 0a3b 8fb9 eb3d fd11 e0bb
00000100: 4401 64bd 1911 a9be 6a60 cfbd cb98 97be
00000110: 8dd8 483e e61d 19be e9a5 8ebe 8ec7 6a3d
00000120: 6c78 893e fa97 0cbe acd4 c6be 65df c43d
00000130: 3fcf 633d 2f4c 98be 45d6 2fbe 7c4c b33e
00000140: 53ba 3c3e b65f 11bd 06fd d1be 527f 863e
00000150: d3bc 85bb a0c1 f4bb 6202 e3bc 691e 17be
00000160: 89dc b7bd 3cd3 88be 5a96 453d 25d2 9bbc
00000170: 66c7 40be 3caa 863d e674 8e3d 2722 c4be
00000180: 44bb ba3e 3b9a 9c3e e369 abbe 2561 043e
00000190: d198 023e e843 1abe 2ca0 d7bc 781e 5cbe
000001a0: 7a20 403e ba50 2ebe 2a74 81bd 4fab 59be
000001b0: 0443 fcbe d214 7abe bc86 2b3d 20b6 423e
000001c0: 82b8 5a3e 0e61 1bbe c180 083f bf3f 88be
000001d0: 288a 99bd f0f2 de3d 2c57 003e e1aa 26be
000001e0: 7022 923d 8786 163c 6dbe b03d 7e7e 2bbe
000001f0: 4fd9 92be 03ea f33d 606b 8b3d 69a3 c5bc
00000200: b040 76bc bee7 5bbe 427b 2d3e 37ed 2ebf
00000210: 4ff4 d43e 3cfc 11bf 380a 4b3e 3232 64bd
00000220: 29d2 debd b2d3 83be 22a4 a7be 04cd 803e
00000230: 3ea1 ebbe 1ebd 903e 9be1 52be 4784 f7bd
00000240: 6a10 fcbd 9396 243e 123e 71be 6791 54be
00000250: 0b1d 403e 0f95 6abe e2aa d53e 6971 58be
00000260: 639a acbe 54df b4be 013f efbe d9f1 bc3d
00000270: c387 cebe 74e3 a53d e745 0fbe 497a 6a3d
00000280: 580e 043e f397 2ebe d67f bbbc f5ea df3e
00000290: e31e 81be d109 17be b179 cdbe ba39 3bbe
000002a0: 5ba2 453d 9b4c 903e cae2 1c3d 6586 5cbe
000002b0: e5eb d2be c101 1fbf a579 933c 3b02 9c3d
000002c0: ff51 0c3e ae0b 213e 0909 2f3c ccb2 853e
000002d0: e87e cf3e bc1d 08bf 3f39 1d3e 99ce 1d3e
000002e0: f932 2f3e dfb0 23be 8c9c 95be 007d d6be
000002f0: dee5 b13e 60ba 9abe 9e42 093c f5f8 61bd
00000300: 2907 02bd c278 bdbe 5d60 bf3d 2229 0d3d
00000310: 18b8 213d b823 15bd 4621 94be 153e d9bd
00000320: 3b20 2e3f 3d31 a2be 8865 cdbe c7be 70be
00000330: 987d 353e 1812 7abe 57e5 b83d 0312 2b3d
00000340: 5ecb 1cbe ccab 0e3e 56e6 1c3c 79ae 9a3d
00000350: 85b3 febb 6f4c 05be 6e56 65be 0b39 07be
00000360: bed9 3cbe accc aa3e 59d1 26be 8f35 1f3e
00000370: febb 1a3e 7d4a 753e c159 cabe 6831 053d
00000380: f778 18bf e285 4b3e dd69 013e d117 62be
00000390: b2b5 013f 16f1 333e 78f6 93be 7ea4 4fbe
000003a0: eda8 52be 5cc7 253d b63b a4be b28d 783d
000003b0: 2f31 9cbe a1f4 8c3d f591 fb3c 9a16 31be
000003c0: afa8 54be 6214 213e eb00 f73e eba7 72be
000003d0: 6cfe a9be 329a 06be 5e1a a73e 82e7 ad3e
000003e0: 796f 2bbf 43e6 01be 8df2 81be b66d d0be
000003f0: ab29 e03d 26da 463e e2e3 23be c28b b03d

dense_2/bias:0 f4 [6]
0.028804628 -0.16914548 -0.043764297 0.0543228 0.053137865 -0.19273974
00000000: aff7 eb3c 7934 2dbe 3142 33bd 9681 5e3d
00000010: 17a7 593d 915d 45be

dense_1/kernel:0 f4 [640, 100]
-0.12406369 0.12431793 -0.21537094 -0.1945791 -0.048485104 -0.022699472 -0.028255286 -0.07129184
-0.007615694 -0.33706978 -0.2722166 -0.14369921 0.015172472 0.3947624 0.074326836 -0.18358946
0.14103575 0.0061442265 0.016882172 -0.07183366 0.044084813 -0.33884078 -0.08331954 0.4076073
-0.40402782 0.03587298 -0.16135353 0.09215209 0.025213677 0.046266254 -0.13591409 -0.18697272
-0.32612124 -0.33727995 -0.07694012 0.12322614 0.027581237 0.0047101732 -0.18379904 -0.0069822166
0.053192858 0.45745346 0.23174225 0.14003019 -0.36481532 0.23294207 0.00034574964 -0.3947046
0.17744213 0.21167351 0.17627047 0.25306633 0.109589785 0.10176951 0.034782488 -0.23547846
0.034800343 0.12720698 0.4624248 -0.01345053 0.07747043 -0.25129434 -0.36561435 0.0964201
-0.20345707 0.14881632 0.1437829 0.16406907 -0.099268556 -0.06953715 0.2998805 0.18415469
0.21880884 -0.40079153 0.35820335 0.039605204 0.2253884 0.24394894 -0.15532468 -0.29816502
-0.06161926 0.03211205 0.07600299 0.6638294 0.30486023 -0.06241553 0.033388473 0.05818941
-0.1654923 0.20795992 0.023224229 -0.4684973 0.13715181 -0.080026224 0.29832157 -0.03776324
0.47890872 0.2755 -0.13998333 -0.091238074 0.0748688 -0.011167128 -0.016932745 0.028731477
0.07838833 -0.0048318165 -0.19720633 0.12512724 0.05000654 -0.1287521 0.107131824 0.09198693
0.13970086 -0.039046623 -0.026706405 -0.23802921 -0.052489895 -0.07425336 0.076491386 -0.022702603
0.10430483 -0.2775293 0.25743476 -0.18697038 -0.24713862 -0.11949565 -0.20294146 0.030399485
-0.1129272 -0.032413986 0.031339448 0.3351904 0.12519583 0.010087439 0.051691808 -0.21410485
-0.04486311 -0.019676914 -0.24716473 -0.28089523 0.0599355 0.02493157 -0.16598198 -0.103966996
-0.025847536 -0.26329967 -0.020689711 0.11530418 -0.13720065 -0.083083495 0.15176553 -0.004873756
-0.04623713 0.14919096 0.03299713 -0.023638967 -0.06668164 0.002975821 0.19843133 -0.2421734
-0.31866652 0.20798318 -0.10233733 0.13930853 -0.014187154 -0.0029982545 -0.14623144 0.05284696
0.04824447 0.08491304 -0.1779221 0.025150655 -0.023848828 -0.20646253 -0.0058340835 -0.028805211
-0.15048295 0.09339782 -0.02562745 0.068330064 -0.068586916 -0.30809423 0.014385493 -0.24775334
-0.006266094 -0.045381323 0.10118835 -0.033882223 0.2079688 -0.08363378 0.49400792 -0.11300985
-0.0138253365 0.025449645 0.1596869 0.11084923 0.065572344 -0.14506966 0.095583156 0.03090442
-0.17729126 -0.09684063 -0.16184758 0.13752338 0.16865064 0.06956348 -0.26801327 0.4422856
-0.0030836167 -0.021055747 0.198032 -0.123766474 0.11137482 0.00011322979 0.29510394 -0.1492118
0.033137493 -0.06969012 -0.2340186 -0.029342864 0.17233509 -0.03425361 -0.009158094 0.04763053
0.14474867 -0.025354838 -0.107411504 0.24523395 0.21867396 0.07502005 0.13501921 0.15313418
0.06621732 -0.1486346 -0.026602948 0.24474849 -0.109206595 -0.16531545 -0.17519882 -0.2445145
0.038136903 0.13842928 -0.0035610807 -0.36755428 0.15901202 -0.059480775 0.08670035 0.104894795
-0.06558948 -0.22554283 0.08844372 -0.050627176 0.16209717 0.045152973 -0.043066304 -0.24628581
00000000: 1b15 febd 669a fe3d 338a 5cbe be3f 47be
00000010: 5198 46bd 3ef4 b9bc a177 e7bc 7501 92bd
00000020: 128d f9bb 6994 acbe f95f 8bbe e325 13be
00000030: f695 783c 4c1e ca3e ab38 983d e0fe 3bbe
00000040: ad6b 103e 8255 c93b 7b4c 8a3c 871d 93bd
00000050: 4792 343d 8a7c adbe 6fa3 aabd e7b1 d03e
00000060: bcdc cebe 8cef 123d dc39 25be 3cba bc3d
00000070: ea8c ce3c af81 3d3d 102d 0bbe c775 3fbe
00000080: 5df9 a6be f5af acbe c892 9dbd fd5d fc3d
00000090: 0cf2 e13c cc57 9a3b d135 3cbe 14cb e4bb
000000a0: c1e0 593d 5737 ea3e d74d 6d3e 1364 0f3e
000000b0: 13c9 babe 5e88 6e3e bb45 b539 b916 cabe
000000c0: 64b3 353e f1c0 583e 3f80 343e e991 813e
000000d0: 9c70 e03d 886c d03d 1578 0e3d 4421 71be
000000e0: ce8a 0e3d 8c42 023e f2c2 ec3e 9d5f 5cbc
000000f0: d1a8 9e3d a7a9 80be ce31 bbbe e777 c53d
00000100: 0d57 50be 4e63 183e d33b 133e b901 283e
00000110: 504d cbbd 7e69 8ebd f089 993e 0c93 3c3e
00000120: 6d0f 603e 8c34 cdbe 6e66 b73e 1139 223d
00000130: 37cc 663e c0cd 793e 6f0d 1fbe 16a9 98be
00000140: 7a64 7cbd ed87 033d 75a7 9b3d b9f0 293f
00000150: a416 9c3e 6da7 7fbd 5ac2 083d 0558 6e3d
00000160: d076 29be 72f3 543e bd40 be3c e1de efbe
00000170: 8671 0c3e cae4 a3bd 9bbd 983e a1ad 1abd
00000180: 8633 f53e 560e 8d3e ca57 0fbe 07db babd
00000190: d054 993d 54f6 36bc 8ab6 8abc 465e eb3c
000001a0: 108a a03d 3754 9ebb 75f0 49be 5b21 003e
000001b0: a8d3 4c3d 97d7 03be ee67 db3d a563 bc3d
000001c0: be0d 0f3e 5aef 1fbd 64c7 dabc eebd 73be
000001d0: a5ff 56bd 2512 98bd 84a7 9c3d cffa b9bc
000001e0: c59d d53d 5218 8ebe 7dce 833e 2a75 3fbe
000001f0: e811 7dbe 23ba f4bd e3cf 4fbe 5708 f93c
00000200: 6046 e7bd 87c4 04bd cb5d 003d 139e ab3e
00000210: 5633 003e c945 253c caba 533d 4d3e 5bbe
00000220: 61c2 37bd 7b31 a1bc c018 7dbe 80d1 8fbe
00000230: ed7e 753d 4b3d cc3c 2ef7 29be a6ec d4bd
00000240: 36be d3bc 37cf 86be 787d a9bc 9924 ec3d
00000250: 547e 0cbe ae27 aabd 6c68 1b3e 07b4 9fbb
00000260: 2563 3dbd 84c5 183e 0028 073d 82a6 c1bc
00000270: 6290 88bd fe05 433b 9531 4b3e 4efc 77be
00000280: 4228 a3be 8bf9 543e 3c96 d1bd e5a6 0e3e
00000290: 3d71 68bc 5d7e 44bb b2bd 15be 0e76 583d
000002a0: fe9b 453d e3e6 ad3d 3631 36be bf08 ce3c
000002b0: 9e5e c3bc ea6a 53be d72b bfbb e8f8 ebbc
000002c0: 3418 1abe 5b47 bf3d a8f0 d1bc a2f0 8b3d
000002d0: 4c77 8cbd 87be 9dbe 21b1 6b3c 0db3 7dbe
000002e0: ce53 cdbb c4e1 39bd d63b cf3d 16c8 0abd
000002f0: c6f5 543e 3048 abbd 9bee fc3e b571 e7bd
00000300: aa83 62bc c67b d03c f684 233e ec04 e33d
00000310: cb4a 863d 248d 14be 1ac1 c33d 442b fd3c
00000320: d78b 35be 6154 c6bd 5fbb 25be eed2 0c3e
00000330: c1b2 2c3e 4c77 8e3d 0939 89be 4273 e23e
00000340: 8116 4abb 1a7d acbc e7c8 4a3e 4779 fdbd
00000350: 7b18 e43d c875 ed38 dd17 973e faca 18be
00000360: 2ebb 073d b2b9 8ebd 92a2 6fbe 7260 f0bc
00000370: 9c78 303e 834d 0cbd d50b 16bc 3b18 433d
00000380: ff38 143e f3b4 cfbc 90fa dbbd 9c1e 7b3e
00000390: 11ec 5f3e 1da4 993d 7a42 0a3e 35cf 1c3e
000003a0: f29c 873d ab33 18be 6dee d9bc 599f 7a3e
000003b0: b5a7 dfbd 7448 29be 5267 33be 0262 7abe
000003c0: 7135 1c3d 68c0 0d3e 0561 69bb 1330 bcbe
000003d0: 0cd4 223e 1da2 73bd f48f b13d 15d3 d63d
000003e0: c753 86bd b3f4 66be fb21 b53d 715e 4fbd
000003f0: cdfc 253e 53f2 383d 4b66 30bd 5932 7cbe

dense_1/bias:0 f4 [100]
0.1442646 -0.013757812 0.010328451 -0.036398806 0.029145358 -0.018394848 -0.14285773 -0.12584093
-0.05608851 0.011134691 -0.04696226 0.02931512 0.071946785 -0.14305672 -0.0944811 0.04573034
-0.01256478 -0.08145838 0.17035188 0.07845429 -0.05557157 0.006230832 -0.0051418804 0.104992606
0.04194782 -0.030638745 0.025345532 -0.16557093 -0.2527298 -0.079985455 0.07472106 0.13642478
0.09726604 0.12738408 -0.047112953 -0.1259048 -0.0132158045 0.20991227 -0.10572713 0.07677819
-0.069300026 0.09168248 -0.04317422 0.20516405 -0.023904225 -0.0029954878 0.09141725 -0.01742828
0.10585549 0.12119402 -0.00073370605 -0.06842934 -0.122948036 0.067254655 -0.053599045 0.13038644
0.014520287 -0.06521875 -0.019411517 -0.07968798 0.09223584 0.019307781 0.27074665 0.020558367
-0.042862676 0.1462747 -0.04371878 -0.02372944 -0.029906195 -0.038907286 0.032588918 -0.045889463
-0.0533954 0.080342904 -0.05301501 -0.024551174 -0.24037586 -0.022685893 0.16817616 -0.0019690827
0.006829129 -0.0054911347 0.16312209 -0.017914329 0.006854654 -0.0330417 -0.08142648 0.0016993736
0.01071085 -0.15438579 0.16005436 0.09014608 0.04894312 -0.065031655 -0.098721206 0.061269928
-0.10919197 -0.106753215 -0.023912601 0.075654805
00000000: 19ba 133e 7268 61bc aa38 293c ea16 15bd
00000010: 3fc2 ee3c cbb0 96bc 4c49 12be 72dc 00be
00000020: 11bd 65bd 476e 363c 805b 40bd 4326 f03c
00000030: d658 933d 767d 12be 4f7f c1bd bd4f 3b3d
00000040: 82dc 4dbc a7d3 a6bd b970 2e3e a5ac a03d
00000050: 049f 63bd 022c cc3b 387d a8bb 5d06 d73d
00000060: 7ad1 2b3d 1bfe fabc 6fa1 cf3c 6d8b 29be
00000070: cd65 81be 6acf a3bd 5b07 993d f0b2 0b3e
00000080: 6b33 c73d f970 023e 83f9 40bd 30ed 00be
00000090: 1a87 58bc 3ef3 563e 7787 d8bd e23d 9d3d
000000a0: 2ced 8dbd 06c4 bb3d 73d7 30bd 8616 523e
000000b0: cbd2 c3bc f24f 44bb f838 bb3d c1c5 8ebc
000000c0: c3ca d83d 9234 f83d 2e56 40ba af24 8cbd
000000d0: 2ecc fbbd cfbc 893d ac8a 5bbd 0684 053e
000000e0: 7fe6 6d3c 6891 85bd e704 9fbc 7433 a3bd
000000f0: 25e6 bc3d 5a2b 9e3c 4e9f 8a3e 056a a83c
00000100: c690 2fbd 09c9 153e 7712 33bd 3e64 c2bc
00000110: d6fd f4bc 3f5d 1fbd f57b 053d 97f6 3bbd
00000120: 23b5 5abd d28a a43d 4426 59bd 8b1f c9bc
00000130: 1725 76be c4d7 b9bc 5f36 2c3e ba0b 01bb
00000140: e3c6 df3b faee b3bb 7a09 273e 12c1 92bc
00000150: 019d e03b bc56 07bd edc2 a6bd 84bd de3a
00000160: 907c 2f3c 4f17 1ebe 4ae5 233e 829e b83d
00000170: 9578 483d 512f 85bd 582e cabd 2df6 7a3d
00000180: 0aa0 dfbd 6ea1 dabd 5ce4 c3bc e8f0 9a3d

conv1d_2/kernel:0 f4 [64, 64, 3]
0.18356507 0.25066212 0.33640993 0.07068546 0.07057702 0.09731582 -0.040829 0.10042103
0.06091946 -0.15435225 -0.09350937 -0.30163252 -0.20898353 -0.31740704 -0.30413145 0.014172451
-0.009537065 0.02231247 0.11630526 -0.10185902 0.002052312 -0.24908134 -0.27634072 -0.21384864
-0.1618056 -0.2113341 -0.22252506 -0.18139155 -0.13595945 0.1284169 -0.057231437 -0.05660627
0.18169382 -0.0035413092 0.055592086 0.08525934 0.2430509 0.20103918 0.08282171 -0.18261188
-0.20097117 -0.14626372 -0.025850227 0.124223374 0.030484704 -0.11524325 -0.14836128 -0.18263055
-0.46068674 -0.25051886 -0.38616908 -0.29147217 -0.04816032 0.03930226 0.23788036 0.058284827
0.07354413 0.011978224 -0.08046871 -0.052193087 -0.27935505 -0.18560071 -0.20769548 -0.2648461
-0.27610376 -0.020309286 0.0078026983 -0.02783445 -0.15891445 -0.0010306005 0.07547413 -0.019731967
-0.1938114 -0.14536661 -0.2585917 -0.019955544 0.013378519 0.22049673 -0.23506394 -0.09928574
0.0013951686 0.12340167 0.24105239 0.34061068 -0.08094681 -0.15915205 -0.048451852 0.0137041705
0.024689803 -0.12855089 -0.015216605 0.06735438 0.21752672 0.0629213 0.13219467 0.18983689
0.122234985 0.23097114 0.17283912 -0.015502157 0.1015768 0.054232467 0.10332647 0.12453973
0.08610254 -0.24900173 -0.19645566 -0.2174389 -0.18133244 -0.3373421 -0.27783835 -0.1787518
-0.1333472 -0.021319695 -0.50080484 -0.5459068 -0.40944904 -0.14320146 -0.034652267 -0.035909068
0.013012989 -0.03588481 0.06878983 0.10648315 0.013727334 0.032628987 0.48790902 0.2638842
0.5331311 0.02524363 0.044674918 0.04788773 0.014041838 0.15939793 0.23157468 -0.22141522
-0.00537453 0.15702483 -0.28261596 -0.1864414 -0.065612316 0.20695502 0.123612404 0.29619232
-0.0063686324 -0.09372448 0.039386906 -0.2709081 -0.021621954 -0.14979666 0.0353371 0.032939505
-0.027786456 0.2888368 0.17794997 0.07940235 -0.09859759 0.04460569 0.07871854 -0.061612666
-0.15308094 -0.13924998 0.20154743 0.24837741 0.03440132 -0.04070073 0.08822185 -0.08870731
-0.07362579 -0.08388949 0.071903884 -0.045652457 0.11142685 -0.08473931 0.118862 0.090274096
0.049500275 0.09219977 0.14344606 0.07426421 0.22455345 0.11409554 0.10191627 -0.05700834
0.1282829 0.089866094 -0.04213854 0.03440239 -0.004512987 -0.09367884 0.10619589 0.049971797
-0.11892586 0.057101917 -0.07303025 0.15939985 0.041744854 -0.011529753 -0.012287744 -0.08135358
-0.0477094 0.10243574 0.08980598 -0.0364625 -0.17120655 -0.044031776 -0.06287569 0.030303681
-0.09505771 0.021520343 -0.088146634 -0.026358234 -0.04168098 -0.18396558 -0.10039173 0.19773728
0.15493315 -0.06941934 0.09708042 -0.12273805 -0.16781312 -0.09624418 0.03003331 -0.018723376
0.11418692 -0.0498785 0.0028376922 -0.16733031 0.19192798 -0.02786492 0.09600418 0.15579607
-0.089149356 -0.018100115 -0.09364256 0.09985904 0.21151218 -0.044470683 -0.07989446 -0.10347972
0.04344748 0.109098315 0.11308188 0.03596942 0.0496277 0.10137444 0.027452128 -0.19355857
-0.10905747 0.0605258 0.08982376 0.058223885 -0.18022127 -0.051529903 -0.008439714 -0.061849963
00000000: 7bf8 3b3e c956 803e ec3d ac3e 8ac3 903d
00000010: af8a 903d 844d c73d 4f3c 27bd 8aa9 cd3d
00000020: af86 793d 840e 1ebe d781 bfbd 946f 9abe
00000030: c7ff 55be 2d83 a2be 1eb7 9bbe 9133 683c
00000040: 5a41 1cbc a4c8 b63c 7431 ee3d 769b d0bd
00000050: 1580 063b 2e0f 7fbe 887c 8dbe 23fb 5abe
00000060: 5eb0 25be f767 58be 9cdd 63be b5be 39be
00000070: f438 0bbe b87f 033e 836b 6abd fadb 67bd
00000080: f20d 3a3e 4f15 68bb 87b4 633d 739c ae3d
00000090: 56e2 783e 37dd 4d3e 6e9e a93d 9cfe 3abe
000000a0: 63cb 4dbe 28c6 15be dbc3 d3bc d368 fe3d
000000b0: 0fbb f93c a704 ecbd 05ec 17be 8103 3bbe
000000c0: 22df ebbe 0244 80be f4b7 c5be d73b 95be
000000d0: c143 45bd 68fb 203d e996 733e 12bc 6e3d
000000e0: 4e9e 963d 5040 443c c7cc a4bd 6bc8 55bd
000000f0: a007 8fbe 1d0e 3ebe 20ae 54be e899 87be
00000100: 795d 8dbe a95f a6bc c7ad ff3b 1305 e4bc
00000110: 78ba 22be 3715 87ba 2e92 9a3d efa4 a1bc
00000120: 7f76 46be fcda 14be 2266 84be cf79 a3bc
00000130: 9331 5b3c e5c9 613e 9ab4 70be 5256 cbbd
00000140: 17de b63a 04ba fc3d 70d6 763e 8664 ae3e
00000150: 71c7 a5bd c1f8 22be 7375 46bd 7587 603c
00000160: 4542 ca3c d8a2 03be 114f 79bc 18f1 893d
00000170: 53bf 5e3e e2dc 803d 0a5e 073e 9a64 423e
00000180: 5656 fa3d b383 6c3e bdfc 303e c2fc 7dbc
00000190: 7f07 d03d dd22 5e3d d49c d33d b00e ff3d
000001a0: 8756 b03d 4ffa 7ebe ac2b 49be 4ea8 5ebe
000001b0: 36af 39be 1bb8 acbe d440 8ebe b60a 37be
000001c0: 2b8c 08be a4a6 aebc bf34 00bf 8cc0 0bbf
000001d0: 4ea3 d1be 67a3 12be 89ef 0dbd 6315 13bd
000001e0: 6f34 553c f3fb 12bd afe1 8c3d d613 da3d
000001f0: 9de8 603c f9a5 053d 36cf f93e d41b 873e
00000200: 487b 083f bbcb ce3c 0cfd 363d ed25 443d
00000210: bd0f 663c 3639 233e ea21 6d3e acba 62be
00000220: d31c b0bb 1ecb 203e 0ab3 90be 7fea 3ebe
00000230: c05f 86bd 04ec 533e 8028 fd3d 85a6 973e
00000240: f6af d0bb 9ff2 bfbd 2a54 213d 77b4 8abe
00000250: 8620 b1bc 4c64 19be a3bd 103d 93eb 063d
00000260: 6ca0 e3bc 6be2 933e 8438 363e b39d a23d
00000270: 89ed c9bd 75b4 363d 3037 a13d 905d 7cbd
00000280: 40c1 1cbe 8c97 0ebe 7362 4e3e a656 7e3e
00000290: 66e8 0c3d cfb5 26bd a8ad b43d 2eac b5bd
000002a0: 1ec9 96bd 41ce abbd 5842 933d 12fe 3abd
000002b0: c333 e43d ce8b adbd ec6d f33d a0e1 b83d
000002c0: cdc0 4a3d 3cd3 bc3d 86e3 123e d617 983d
000002d0: 57f1 653e ecaa e93d 7ab9 d03d 9481 69bd
000002e0: 985c 033e b70b b83d 7699 2cbd 85e9 0c3d
000002f0: aee1 93bb b1da bfbd 3b7d d93d 3aaf 4c3d
00000300: 678f f3bd b3e3 693d e290 95bd b739 233e
00000310: a7fc 2a3d 4ae7 3cbc 8952 49bc b59c a6bd
00000320: ef6a 43bd d4c9 d13d 33ec b73d b459 15bd
00000330: c550 2fbe aa5a 34bd f8c4 80bd 6d3f f83c
00000340: 9ead c2bd 6e4b b03c 3986 b4bd 39ed d7bc
00000350: adb9 2abd 7961 3cbe 2e9a cdbd a47b 4a3e
00000360: cca6 1e3e ba2b 8ebd 19d2 c63d 165e fbbd
00000370: 34d7 2bbe ab1b c5bd 6b08 f63c c461 99bc
00000380: d5da e93d 664d 4cbd 93f8 393b a358 2bbe
00000390: c588 443e f944 e4bc d79d c43d 0189 1f3e
000003a0: f093 b6bd b146 94bc acc7 bfbd e582 cc3d
000003b0: a696 583e e426 36bd b59f a3bd 2ded d3bd
000003c0: fcf5 313d f06e df3d 7997 e73d ac54 133d
000003d0: 6a46 4b3d 679d cf3d 49e3 e03c 3834 46be
000003e0: 8659 dfbd e7e9 773d 85f5 b73d 2b7c 6e3d
000003f0: ed8b 38be 0511 53bd ba46 0abc 6356 7dbd

conv1d_2/bias:0 f4 [64]
-0.03275713 -0.0703519 -0.044448074 0.06716381 -0.019565783 -0.049095817 0.1118954 0.04002042
-0.14729924 -0.022304216 0.043806486 0.050914373 -0.076872505 0.14961727 0.046650276 0.06367554
0.0654629 -0.25408468 0.11953267 0.08458175 0.06291681 -0.06514893 0.103153385 -0.022819025
-0.08351981 -0.20945774 0.20663334 0.041717436 -0.10651628 -0.05893507 0.06918869 -0.15386316
-0.01742475 -0.0235059 0.036507264 -0.03702656 -0.03836384 -0.026662884 -0.029623186 -0.081234656
0.009670314 0.06301089 -0.18815629 0.054125335 -0.023726504 -0.024586435 -0.13534454 -0.03036921
-0.040364817 0.14933115 -0.0489659 -0.12109703 -0.03152309 -0.008330609 -0.16932362 0.113122776
0.03567701 0.06754301 0.0026122292 -0.008955306 -0.19192208 -0.01962395 0.038124297 0.08048074
00000000: 572c 06bd a814 90bd 2f0f 36bd 2e8d 893d
00000010: 6c48 a0bc b218 49bd 6a29 e53d 74ec 233d
00000020: 9dd5 16be 55b7 b6bc 6e6e 333d 978b 503d
00000030: 556f 9dbd 4535 193e 5c14 3f3d 5268 823d
00000040: 6a11 863d 6317 82be 8bcd f43d 3239 ad3d
00000050: 87da 803d cd6c 85bd 1542 d33d f7ee babc
00000060: 6f0c abbd 177c 56be b197 533e e7df 2a3d
00000070: 3525 dabd e665 71bd cdb2 8d3d 4e8e 1dbe
00000080: 59be 8ebc 728f c0bc a488 153d 2aa9 17bd
00000090: 6723 1dbd 1f6c dabc 53ac f2bc 5b5e a6bd
000000a0: 3d70 1e3c da0b 813d 0bac 40be 87b2 5d3d
000000b0: 165e c2bc 7e69 c9bc c297 0abe d9c8 f8bc
000000c0: 9455 25bd 44ea 183e 7890 48bd b801 f8bd
000000d0: 5b1e 01bd 1b7d 08bc 2c63 2dbe eaac e73d
000000e0: 0e22 123d fd53 8a3d ef31 2b3b 47b9 12bc
000000f0: 3987 44be 68c2 a0bc 3928 1c3d 16d3 a43d

conv1d_1/kernel:0 f4 [64, 6, 3]
0.060681995 -0.08397886 -0.15692067 0.24922368 0.41696975 0.3215057 -0.2995283 -0.19715393
-0.33653116 -0.29236105 -0.027697437 -0.07188264 0.027726639 -0.13895622 0.07892606 -0.16186447
-0.205989 -0.22834937 -0.26638818 -0.09716864 0.15520474 0.19966179 -0.07575989 0.00672681
0.047053743 0.08097107 -0.09407835 -0.03281341 -0.14354706 0.1342258 0.19606353 0.082221344
0.22552027 0.034035053 -0.15921777 -0.2000594 0.104178995 0.0092309695 0.044409994 -0.059562925
-0.16196996 -0.19794393 0.06504762 -0.088596895 -0.053710517 0.16573164 0.17649215 -0.13993087
-0.11415796 0.02170096 -0.06347937 0.30915383 0.30797935 0.36334234 -0.033819374 0.114094734
0.08575923 -0.2558803 -0.22602595 0.11538957 -0.037113782 -0.051341638 0.21875967 -0.13184425
0.07582862 -0.15173186 0.29720908 -0.046041515 -0.15570733 -0.049368467 0.058818363 -0.048283517
0.17884529 0.17162938 0.16366898 0.17789105 -0.013144432 -0.07447856 -0.038749676 0.19748126
0.03324961 -0.11957382 -0.051671766 0.12285963 0.021590361 0.0010853972 -0.051519655 0.097721554
-0.15787919 -0.022810696 0.035655852 0.077781096 0.0892504 -0.0006643405 0.034522615 0.1989594
-0.03231149 0.01841504 -0.08360418 0.23945548 0.31430376 0.2659991 0.14791006 0.1342554
-0.0166367 -0.22207475 0.04174478 0.07052978 -0.058301266 -0.01754128 -0.20476869 -0.0055276803
-0.18917236 -0.2706221 0.010140053 0.14241356 -0.14965184 0.1627617 -0.0852196 -0.070625424
0.05931255 0.008885816 0.17237507 -0.013633308 0.05648125 0.199391 0.023003563 0.04122307
0.02392626 0.17121261 -0.03935918 0.22755626 0.058127422 0.19021393 0.055622213 -0.048033416
0.07387605 0.20139106 -0.29644755 0.120092586 0.16443932 -0.074820995 -0.034254927 -0.24221092
-0.057157893 0.1185308 -0.19999245 -0.25625727 -0.30009216 0.024637904 -0.10978766 0.023976468
0.018030763 -0.033700418 0.13152228 -0.03733459 0.19960268 0.11846768 0.06771852 0.055370998
-0.12540871 -0.35423803 -0.09847051 -0.15477367 0.06655701 -0.36278355 -0.14752987 -0.36465642
0.2673788 0.18870707 0.0009024361 0.103173174 0.0020381338 0.09221204 -0.07147269 -0.045295067
-0.017919477 -0.18571223 0.12086307 0.0073304577 0.096126325 0.07085954 -0.059083246 -0.05517575
-0.08552315 -0.2450419 -0.20597188 -0.28772926 -0.15326548 -0.07150824 0.0028912 -0.0849111
0.033786964 -0.03281323 0.09266208 -0.10064617 -0.100171216 -0.46898243 0.019405369 -0.22694221
-0.2362777 -0.025078004 -0.23539132 -0.2531139 0.10310596 0.23339084 0.22472547 -0.0068349466
-0.052151468 -0.28750804 -0.09900437 0.018955085 -0.10138808 -0.03961396 0.22518992 -0.029871056
-0.15881303 -0.013484332 0.081601314 0.002053804 -0.13253205 0.11031398 -0.44444305 -0.47571793
-0.2800917 0.08495937 0.040053625 -0.065901555 0.09925043 0.12545335 -0.057093006 0.0015166295
-0.0538535 0.21805799 -0.05429934 0.032308966 -0.011932338 0.08891309 0.0123766875 -0.09389231
0.10564708 0.067281276 -0.10762656 -0.33081383 -0.37091783 -0.19232179 0.021684969 0.058548942
0.038854 0.11670169 0.012294258 0.12362415 -0.0810493 0.13146439 0.08855537 -0.014302277
00000000: af8d 783d 1cfd abbd d0af 20be 7e34 7f3e
00000010: 0f7d d53e 659c a43e c65b 99be b8e2 49be
00000020: d04d acbe 59b0 95be bce5 e2bc 3537 93bd
00000030: fa22 e33c 8a4a 0ebe fca3 a13d cdbf 25be
00000040: c8ee 52be 6bd4 69be 0864 88be 5a00 c7bd
00000050: feed 1e3e 2474 4c3e 0028 9bbd 926c dc3b
00000060: 6dbb 403d 29d4 a53d 26ac c0bd 5b67 06bd
00000070: 00fe 12be 7d72 093e e1c4 483e aa63 a83d
00000080: c9ee 663e 5768 0b3d fc09 23be 5fdc 4cbe
00000090: cc5b d53d 7e3d 173c 41e7 353d 41f8 73bd
000000a0: 74db 25be d0b1 4abe b037 853d 4a72 b5bd
000000b0: 8fff 5bbd 8eb5 293e 5cba 343e 0a4a 0fbe
000000c0: a6cb e9bd 36c6 b13c 7901 82bd 6949 9e3e
000000d0: 78af 9d3e 0208 ba3e 2f86 0abd 80aa e93d
000000e0: 89a2 af3d be02 83be 5973 67be 5e51 ec3d
000000f0: 9f04 18bd 9c4b 52bd 8902 603e 2e02 07be
00000100: 094c 9b3d 995f 1bbe ca2b 983e 0796 3cbd
00000110: be71 1fbe 9736 4abd 86eb 703d f0c4 45bd
00000120: 3823 373e 9dbf 2f3e d798 273e 1229 363e
00000130: be5b 57bc 3788 98bd fbb7 1ebd 8738 4a3e
00000140: be30 083d 1ee3 f4bd c6a5 53bd d49d fb3d
00000150: 45de b03c e343 8e3a 4606 53bd 3d22 c83d
00000160: 15ab 21be 7fdd babc df0b 123d b24b 9f3d
00000170: eac8 b63d 2327 2eba 9667 0d3d 03bc 4b3e
00000180: 0e59 04bd 23db 963c ab38 abbd d133 753e
00000190: 6cec a03e 0931 883e bc75 173e 3f7a 093e
000001a0: b049 88bc 9067 63be 93fc 2a3d eb71 903d
000001b0: 4fcd 6ebd bbb2 8fbc e2ae 51be 8b21 b5bb
000001c0: 66b6 41be fb8e 8abe 7722 263c dcd4 113e
000001d0: 553e 19be 01ab 263e 9d87 aebd 10a4 90bd
000001e0: b7f1 723d d095 113c 1783 303e 3d5e 5fbc
000001f0: e258 673d 282d 4c3e f871 bc3c 86d9 283d
00000200: 0101 c43c 5c52 2f3e 1737 21bd 8204 693e
00000210: 0517 6e3d 71c7 423e 1ed4 633d b0be 44bd
00000220: 544c 973d 7539 4e3e f9c7 97be 1af3 f53d
00000230: c862 283e c03b 99bd e54e 0cbd 2406 78be
00000240: 651e 6abd 47c0 f23d d2ca 4cbe 2734 83be
00000250: aea5 99be 6ed5 c93c 5ad8 e0bd 4c6a c43c
00000260: 40b5 933c 7309 0abd c7ad 063e 28ec 18bd
00000270: a564 4c3e 2f9f f23d 02b0 8a3d b3cc 623d
00000280: 246b 00be b05e b5be e8aa c9bd fd7c 1ebe
00000290: 0b4f 883d c4be b9be 1212 17be 3fb4 babe
000002a0: e0e5 883e 6d3c 413e 7691 6c3a 754c d33d
000002b0: 3692 053b abd9 bc3d 4660 92bd 5287 39bd
000002c0: decb 92bc 592b 3ebe 0f87 f73d 5634 f03b
000002d0: e1dd c43d ce1e 913d 4601 72bd f8ff 61bd
000002e0: c326 afbd 44ec 7abe 4bea 52be 4051 93be
000002f0: a0f1 1cbe ea72 92bd 497a 3d3b dfe5 adbd
00000300: 3364 0a3d 2a67 06bd 9ec5 bd3d 941f cebd
00000310: 9126 cdbd 771e f0be 02f8 9e3c 8a63 68be
00000320: c8f2 71be 6370 cdbc 6c0a 71be 2598 81be
00000330: 3829 d33d 02fe 6e3e 6f1e 663e b0f7 dfbb
00000340: c79c 55bd 4134 93be cec2 cabd b247 9b3c
00000350: 8ea4 cfbd 3f42 22bd 3098 663e 25b4 f4bc
00000360: e29f 22be 63ed 5cbc 971e a73d 1d99 063b
00000370: 7bb6 07be 4cec e13d 0a8e e3be 4d91 f3be
00000380: 2e68 8fbe 2eff ad3d 450f 243d 65f7 86bd
00000390: cf43 cb3d d876 003e 5bda 69bd a4c9 c63a
000003a0: 7d95 5cbd 984a 5f3e fc68 5ebd 6856 043d
000003b0: da7f 43bc 1118 b63d 97c7 4a3c 9d4a c0bd
000003c0: 7f5d d83d c4ca 893d 506b dcbd 6e60 a9be
000003d0: f1e8 bdbe 01f0 44be ada4 b13c 04d1 6f3d
000003e0: 5f25 1f3d 4c01 ef3d db6d 493c a92e fd3d
000003f0: 2dfd a5bd 9a9e 063e 855c b53d 1954 6abc

conv1d_1/bias:0 f4 [64]
0.0365309 0.09090862 -0.1578456 -0.21427467 -0.2852207 -0.098165736 0.2008537 -0.0751746
-0.08516627 -0.016936325 -0.19522348 0.13651884 -0.04701292 0.09451186 -0.12798716 -0.104771644
-0.11142084 -0.13453189 -0.024341019 -0.22435735 0.17341141 -0.013717579 0.051805835 -0.098808974
0.091716565 0.018670535 0.24639827 0.014033642 -0.14225847 0.13366958 0.071599744 0.06690364
0.4962841 0.09160566 -0.005322681 -0.084408425 -0.13550334 -0.17394911 -0.12166905 -0.226697
-0.33041966 0.18669052 0.051149633 -0.06627262 -0.10827386 -0.089260526 -0.013378647 0.12836221
0.097455814 0.028791606 -0.092622384 0.06619542 -0.21931168 -0.25093114 0.16232124 -0.017492473
-0.02909116 -0.110868424 0.1449398 0.0006078372 0.14014935 -0.06633969 -0.051520072 -0.0143751195
00000000: 6da1 153d 4c2e ba3d 47a2 21be d26a 5bbe
00000010: 7308 92be 1e0b c9bd 98ac 4d3e 24f5 99bd
00000020: a76b aebd 0cbe 8abc aae8 47be 98cb 0b3e
00000030: 9f90 40bd 6f8f c13d 110f 03be 8492 d6bd
00000040: 9c30 e4bd bac2 09be d166 c7bc efbd 65be
00000050: c392 313e b2bf 60bc 5b32 543d 5c5c cabd
00000060: e5d5 bb3d f3f2 983c d44f 7c3e 5ced 653c
00000070: 34ac 11be aee0 083e e3a2 923d c704 893d
00000080: f318 fe3e c09b bb3d e269 aebb 53de acbd
00000090: 63c1 0abe b71f 32be 9f2d f9bd 4223 68be
000000a0: c42c a9be cd2b 3f3e 4782 513d f0b9 87bd
000000b0: afbe ddbd 39ce b6bd 1d32 5bbc 6271 033e
000000c0: ea96 c73d 60dc eb3c ceb0 bdbd 7791 873d
000000d0: 3e93 60be 0c7a 80be 8a37 263e 604c 8fbc
000000e0: 9650 eebc fc0e e3bd 196b 143e 4457 1f3a
000000f0: 5083 0f3e 1add 87bd b606 53bd 9f85 6bbc
